GRU_trained.pth (torch, 998075 bytes, 13 tensors)

gru.weight_ih_l0 f4 [384, 1]
000000 bb 91 63 3d ee 57 5b 3d b5 2d a2 bb b9 59 b2 bd
       0.0555589 0.053550653 -0.0049492964 -0.087085195
000010 00 a2 9b 3d b2 d3 b3 bd 47 f5 04 3d 7e 15 90 3d
       0.075992584 -0.08780612 0.032460477 0.07035349
000020 2e 93 f5 3c 28 85 f8 bc f1 f3 8d 3c e1 b1 34 3d
       0.029977407 -0.030336931 0.017328234 0.04411495
000030 a4 91 a5 3b 6b 6a 48 3d 10 84 bc 3d 3b 08 64 3d
       0.005052762 0.048929613 0.092048764 0.05567191
000040 ff a1 85 3d 6e c1 56 bd bf 82 56 3d a9 87 b7 3c
       0.06525039 -0.052430563 0.052370783 0.022403555
000050 25 81 a6 bd 86 d4 56 3b fe 9c 61 bd e7 e2 21 ba
       -0.08130101 0.0032780482 -0.05508136 -0.00061754737
000060 99 44 be 3d 17 a3 a0 bd 2f 56 07 bd ea e0 37 3d
       0.09290428 -0.07843607 -0.033041175 0.04489223
000070 f8 ad 87 3d 44 19 af 3d 8f ae ac 3d ee d2 bc bb
       0.06624979 0.08549741 0.08431732 -0.0057624495
000080 fa 79 4d 3d 37 ba c4 bc 36 b0 89 3d 16 89 e3 3c
       0.050165154 -0.024014575 0.06723063 0.027775329
000090 88 b3 1a 3d 44 a2 dc 3c d9 27 84 3d 5b 98 97 bd
       0.03776887 0.026932843 0.06452913 -0.074021064
0000a0 b5 86 a4 3d ac 59 a2 ba 0d 0b a3 3d ed 5e 94 3d
       0.08033506 -0.0012386343 0.07961092 0.07244668
0000b0 c1 d8 92 3d 54 f8 6e bd 4d 52 76 3c ae b1 1d 3d
       0.07170249 -0.058342293 0.0150342705 0.038499527
0000c0 ce 0a 95 3d bb ed 70 bd 65 50 6c 3d e1 aa 2f bb
       0.072774515 -0.058820467 0.057693858 -0.0026804733
0000d0 1e aa 26 bd c5 36 ba bd 11 1e 84 3d e8 da 84 3d
       -0.04068958 -0.09092478 0.06451047 0.064870656
0000e0 9e 09 53 3d b2 70 12 3d cf 5e 15 bd 75 2e 08 bd
       0.051522844 0.035752006 -0.03646737 -0.03324743
0000f0 90 45 ec bc 66 8a 94 bd 6e 57 07 bb 94 4a ac 3d
       -0.028841764 -0.0725296 -0.0020651477 0.08412662
000100 df 97 61 bd 54 f3 a6 3d c3 3b bc 3d 2e 32 10 ba
       -0.055076476 0.0815188 0.09191086 -0.00055006414
000110 ea dc a6 3d 76 76 1e 3c 2d 89 6c 3d 7b bd d2 bc
       0.08147605 0.009671798 0.05774801 -0.025725117
000120 5f 8b 86 3d 00 80 1e bd 7f e1 9b bd 9b 7b 0d bd
       0.06569552 -0.03869629 -0.07611369 -0.034541707
000130 7f 25 56 bd 04 64 3a 3c 5f 74 2e bd 0b 18 3a 3d
       -0.052281853 0.011376385 -0.04259145 0.045433085
000140 0b f9 85 bc 99 e8 9c 3d 4a 95 57 bc 25 3d 5f bd
       -0.016354105 0.07661552 -0.013158152 -0.05450167
000150 01 37 94 3c a7 bf 74 bc 15 a9 a4 bd 2e e7 08 3c
       0.018092634 -0.014938272 -0.08040062 0.008355899
000160 88 3f aa bd 11 8c fc bc 53 a7 4e 3d 71 3c f7 3c
       -0.08312899 -0.030828508 0.05045254 0.030180188
000170 87 95 18 bd 50 4a e0 bb 87 0a a1 bd b5 6e c4 bc
       -0.037251975 -0.0068447962 -0.07863336 -0.02397857
000180 dd 1e 48 bd 6a a3 9d bd 80 2b c2 bc d2 da 6c bd
       -0.04885756 -0.076971844 -0.023702383 -0.05782587
000190 b9 ec 02 3c 2b 77 0e bd 5e 34 63 3d a4 ba 48 bd
       0.007991009 -0.034781616 0.055469863 -0.04900612
0001a0 bb 52 23 bd 86 f1 eb bc 88 d9 c3 3b 4b 44 3d bc
       -0.03987382 -0.02880169 0.0059768595 -0.011551927
0001b0 f6 d1 10 bb 21 64 22 bd 92 9c ab 3c 73 c8 1a bd
       -0.0022097803 -0.03964627 0.020948682 -0.03778882
0001c0 26 80 a3 3d ee ae 32 3d 7f 9a 0a bd 7a 67 d2 3b
       0.07983427 0.043623857 -0.033838745 0.006421027
0001d0 a8 73 5b bc 12 a3 88 bd c1 2a 5d 3d bc d0 72 3b
       -0.013394274 -0.06671728 0.05399585 0.0037050685
0001e0 a1 30 85 bd c3 08 b7 bb e4 c4 14 bd c8 7c 8d bd
       -0.06503416 -0.0055857613 -0.036320582 -0.06908566
0001f0 25 67 50 3c 70 88 8f bd f3 66 0d bd 04 a4 a4 3d
       0.012719904 -0.07008445 -0.03452201 0.08039096
000200 6d 80 9d 3d 0e 7e b1 bd 72 a7 53 3c c3 4b 05 3d
       0.07690511 -0.08666621 0.01291834 0.032542955
000210 ab dc 99 bd fe 83 16 3c fb 42 04 3c 6e d4 b1 3c
       -0.07512792 0.009186743 0.00807261 0.02170774
000220 98 6f b6 3d 15 f3 a7 bd fc 3c b2 3d f5 83 98 3d
       0.089080036 -0.08200661 0.08703038 0.07447044
000230 82 6c a1 bd 22 e5 8c bd f6 c2 b0 3c de 5d f9 bc
       -0.07882024 -0.06879641 0.02157734 -0.030440267
000240 b4 9a 70 3d 3f f6 bf 3d fd 72 9a 3d 06 c1 98 3d
       0.058741286 0.093731396 0.075414635 0.07458691
000250 1d 05 cc bc 38 a7 12 bc 62 73 aa 3d 44 b5 70 bc
       -0.024904782 -0.008951001 0.08322789 -0.014691655
000260 a0 77 28 3d bb 94 20 3c ca 91 8e bc 02 7c f3 bc
       0.04112971 0.009801085 -0.017403502 -0.029722217
000270 cf 27 f7 3c 59 77 fb 3c 20 b3 66 bc b0 ec 6d bd
       0.03017035 0.030696558 -0.014080793 -0.05808705
000280 a3 af 8e bd b6 d1 91 bd 66 4a 0a 3c 30 04 61 bd
       -0.06967094 -0.07120077 0.0084405895 -0.054935634
000290 b6 df 6f 3d 24 15 98 bd 50 5e b5 3d 68 59 d8 3c
       0.058562957 -0.07425907 0.08855879 0.02640982
0002a0 70 6e 5f bc ca c0 61 bc 79 f7 f8 3c 71 da 5f bd
       -0.01363717 -0.013778875 0.030391442 -0.05465168
0002b0 62 4f 01 bd 3b 0a 93 bd 8b 0c 66 bd ab 93 d5 bc
       -0.031569846 -0.07179686 -0.056164306 -0.02607139
0002c0 15 2e c6 bc 93 d3 1d bd e5 89 af 3d c8 3f a6 bc
       -0.024191895 -0.03853185 0.08571223 -0.020294085
0002d0 63 fd 0c 3d eb 6a e6 bb a1 67 3e bd e1 f7 a0 bd
       0.034421336 -0.0070317886 -0.046485547 -0.07859779
0002e0 50 a7 8a 3d a4 df 07 3d 44 7d 9c 3c c1 cc 56 bd
       0.067701936 0.033172265 0.0191027 -0.052441362
0002f0 7c 38 0c bd 6b f8 d2 3c 9b 25 8a bd a4 92 31 bd
       -0.034233555 0.02575322 -0.06745454 -0.043352738
000300 76 9c 3d bc 2f a2 0b 3d 44 1a f7 bc 4d b2 70 bd
       -0.011572948 0.034090217 -0.030163892 -0.05876379
000310 43 b3 ee 3c a8 15 5d 3c a6 c7 b7 bc ac 19 fb 3c
       0.029138213 0.013493933 -0.022434067 0.03065189
000320 3c 54 2c bd 6b 4b ce bb ae d0 a3 3c c9 7f ac bc
       -0.04207252 -0.0062956116 0.019996967 -0.021057026
000330 53 86 03 3c eb c6 38 bd 0c 77 a0 3d 98 db ba 3d
       0.008027631 -0.045111578 0.078352064 0.091239154
000340 20 f6 8f 3c bf ec 6f 3d d1 98 b8 3c d0 cf 94 3c
       0.017573416 0.058575388 0.022533806 0.018165499
000350 12 93 4b 3d e6 5b cd 3c 6a 7c 59 3d 9e 11 51 3c
       0.049700804 0.025068235 0.053097166 0.012760548
000360 5b cc 85 3d c3 59 24 bd 5a 20 72 bd 53 75 90 bd
       0.06533118 -0.040124666 -0.059112884 -0.07053628
000370 aa 76 f1 3c df a0 19 3d ea 55 96 3d e3 ca 49 3d
       0.029475529 0.037506934 0.073406056 0.049265753
000380 30 bb ef 38 b8 e2 4c 3d fc 6a dd 3c 08 47 24 bd
       0.000114312745 0.050020903 0.027028553 -0.040106803
000390 2e f7 26 bc 2b 7e 8a 3d 98 32 8f 3d 89 0a 4e bc
       -0.010190768 0.06762346 0.06992072 -0.012575754
0003a0 6a 7a 7d 3d 29 52 26 bd 63 27 9e 3d 58 db 55 bd
       0.06188432 -0.040605698 0.07722356 -0.052211136
0003b0 66 00 97 3d 91 8c 9d 3d 16 76 6f bd 06 4d 71 3d
       0.07373123 0.076928265 -0.058462225 0.058911346
0003c0 3c 8c 58 3d 4a 03 75 3d 33 36 af bc c6 73 9c 3d
       0.052868113 0.05981759 -0.021388149 0.076392695
0003d0 54 d0 3d 3d 88 ec 7c 3c 2a d3 95 3d cd 9d 31 3d
       0.046341255 0.015437253 0.07315667 0.04336338
0003e0 64 96 4b 3b 17 1b 47 bd da d7 09 3d 44 3a d1 bc
       0.0031064982 -0.04860982 0.033653118 -0.025540479
0003f0 b0 66 66 bb 4e f5 9b 3c b4 43 2e 3d 54 82 0c bd
       -0.0035156421 0.019037869 0.042545035 -0.034303978

gru.weight_hh_l0 f4 [384, 128]
000000 e4 a9 34 3d 16 13 7f bc 69 94 3d 3d 31 59 ae bc
       0.044107333 -0.015568515 0.046284113 -0.021282764
000010 a6 51 32 3d 79 cf 9e bd 64 53 97 bd fb f3 45 bd
       0.043534897 -0.07754416 -0.073889524 -0.04832838
000020 ab 88 91 bd 96 75 a2 bc 5c 9c 1f 3d f7 8e 75 3d
       -0.071061455 -0.01983146 0.038967475 0.059950795
000030 8c fe 21 3c f8 e6 b2 bc 67 a5 8f bd 6e e3 5e bd
       0.009887349 -0.02183865 -0.0701397 -0.054416113
000040 81 8e 61 3d 43 db ef bc 54 9d 2c 3d 92 ad 38 3d
       0.055067543 -0.029279357 0.042142227 0.045087405
000050 a7 17 0c 3d 62 28 2e 3c 97 aa 47 3d de 83 a8 bd
       0.034202244 0.010629745 0.04874667 -0.08228277
000060 4c b7 97 bd 04 57 64 bc a4 6f 16 bd 80 09 4d bd
       -0.07408008 -0.013936762 -0.036727563 -0.050057888
000070 09 a2 80 3d 51 79 4c bd 50 bf 3a bc 55 6e 93 3d
       0.06280906 -0.049920384 -0.0113981515 0.071987785
000080 38 24 7e 3d e8 d3 ba 3c e9 bf 70 bd 2c 0e ed 3c
       0.06204626 0.022806123 -0.05877677 0.028937422
000090 8e 2c 66 bd ed 0b 9c 3d 5c 11 05 bd 3f 04 50 3c
       -0.056194834 0.07619462 -0.03248726 0.012696325
0000a0 e2 bf 37 bd 4e 12 0d bb f6 f6 a9 3d 0c e4 28 bd
       -0.044860728 -0.0021525803 0.08299057 -0.041233107
0000b0 49 70 e5 3b 74 41 9b 3c 7c 6f b8 3d aa 40 a1 bd
       0.007001911 0.018952109 0.09005639 -0.07873662
0000c0 85 22 76 3c 15 6c 0b 3d e3 61 20 bd 60 47 89 3d
       0.015022879 0.034038622 -0.039155852 0.06703067
0000d0 12 b5 3e bd 13 f9 94 bd 69 a0 0d bd 33 13 34 bd
       -0.0465594 -0.0727407 -0.034576807 -0.043963622
0000e0 ca fa 99 bd 7c 9a 5d bd 1a be eb bc 70 ef b0 bd
       -0.07518537 -0.054102406 -0.02877717 -0.08639419
0000f0 7f e0 13 b9 11 5d 9a 3b 6b c9 85 3d 96 5b 69 3c
       -0.00014102644 0.0047108014 0.06532558 0.014243027
000100 3d 16 99 bc 82 a8 d1 3c 78 31 bb 3c 26 6e 9a 3d
       -0.018687362 0.025593046 0.022850737 0.075405404
000110 35 63 6c 3c da 25 b6 3c bb f3 ae 3c c5 2a 90 3d
       0.01442795 0.022234846 0.021356454 0.07039408
000120 b5 96 a9 3b ef 79 90 bd 13 30 bd bd 9e 78 05 bd
       0.0051754364 -0.07054507 -0.09237685 -0.032585733
000130 65 1a 56 3d 61 d5 20 3d 1e e5 2a 3d 00 a9 e0 3c
       0.052271266 0.039265994 0.04172241 0.027424335
000140 af 53 9e 3d 92 63 6a 3d 1c ed fe 3c ae c0 55 3b
       0.07730805 0.057223864 0.031118922 0.0032616067
000150 09 6d 7f bd 8b 4c 4c 3d 69 85 9e bd df d1 92 bd
       -0.062359843 0.049877685 -0.0774029 -0.07168936
000160 87 eb aa 3d 24 4c 6a bc dd 80 3f bd 34 4f 6e 3d
       0.083457045 -0.01430038 -0.046753753 0.058181003
000170 71 46 29 3d cc c4 5e bd e4 20 ad bd 76 06 fc bc
       0.041326944 -0.0543869 -0.08453539 -0.0307648
000180 03 ae f6 b8 8a ae 9d bd fb 7a 3e bd 03 9d c7 3b
       -0.00011762606 -0.07699306 -0.046504002 0.0060917153
000190 e8 cf f7 3c 6f fb 1d 3d 35 bd 0e bc 20 44 9a bd
       0.030250505 0.038569864 -0.008712103 -0.07532525
0001a0 b5 bf 8c 3d ac 19 90 3d f4 f2 4e 3d 60 fc 5c bd
       0.06872503 0.070361465 0.050524667 -0.05395162
0001b0 6c 92 16 3d 1b ce 41 3d 0c 37 7f bd c6 19 99 bd
       0.036760733 0.047315698 -0.062308356 -0.07475619
0001c0 a5 0a 7f 3d a9 b3 f0 bc 3b 93 ab bb 3a e6 b2 bd
       0.06226601 -0.029382544 -0.005236057 -0.087353185
0001d0 e7 15 a7 3d d3 4e b7 bd 7a 51 90 bd d9 ff 3f bd
       0.081584744 -0.089505814 -0.070467904 -0.046874855
0001e0 8b 28 e6 3c c3 99 85 3d a9 cb 14 3d bf 1b 8c bd
       0.028095504 0.06523468 0.036327038 -0.0684123
0001f0 b1 64 0e bd 09 dd a9 bd 88 a7 9b 3d 66 2d 03 3d
       -0.034763996 -0.08294112 0.076003134 0.032025717
000200 87 be 7f 3c 84 24 b0 bc 11 32 89 bd f1 34 31 bd
       0.01560939 -0.021501787 -0.066990025 -0.04326338
000210 dd 44 32 bb 6c 0a f5 bc a0 06 80 bd 7a 01 78 3c
       -0.002720169 -0.029912196 -0.062512636 0.015137071
000220 37 40 9f bd bf fe 70 3d 64 b1 26 3d af 1e 29 3d
       -0.0777592 0.058836695 0.040696517 0.041289028
000230 2b e1 05 3c d2 06 b6 3b ae 44 31 3d 69 a6 a4 bd
       0.00817136 0.0055550123 0.04327839 -0.08039553
000240 54 c0 1c 3d 26 bc a4 3c a3 06 f0 3c d6 64 e9 3a
       0.038269356 0.020109247 0.02930004 0.0017806541
000250 19 fd 78 3d 3e 96 a3 bc ea d4 c4 bc dd 1f 67 bd
       0.060788248 -0.019969102 -0.024027307 -0.05642687
000260 29 81 8f 3d 6b 12 48 bd 06 85 60 bd f9 8f 8e 3b
       0.07007057 -0.04884569 -0.05481436 0.004350659
000270 da 9c 23 bd b4 85 97 bd 2e 63 1d 3d 01 11 ae 3d
       -0.039944507 -0.07398549 0.038424663 0.08499337
000280 0c 05 fc 3c 48 6f 87 bd d4 85 67 bd 1a 93 bc bc
       0.030764125 -0.06613022 -0.056524113 -0.023019362
000290 2b 61 cc 3c 4f be 83 3d c4 45 f7 bc ab 04 c6 bc
       0.024948677 0.06432783 -0.030184634 -0.024172148
0002a0 83 f1 84 bb a1 71 45 bb 3d c5 9f 3d ce 2b 95 bd
       -0.0040571108 -0.0030127543 0.07801292 -0.07283746
0002b0 e7 70 83 bc f2 d1 99 bc 80 e8 fd 3b 50 2c 2d bd
       -0.016045047 -0.018776868 0.0077486634 -0.042278588
0002c0 27 4f ea 3c 5d 30 7b 3d 58 f0 c2 bc b2 75 ea bc
       0.028602196 0.06132542 -0.023796245 -0.028620575
0002d0 b2 56 f3 3c 01 eb 97 bc e9 e2 6c bd 2a 6c 6c 3d
       0.029704425 -0.018544676 -0.057833586 0.05772034
0002e0 49 e5 79 3d c1 0a 49 bd 5d 91 9d bd 0c 7e 19 3d
       0.06100968 -0.04908252 -0.076937415 0.037473723
0002f0 2b 90 90 3d 78 e7 89 3d 10 4b e2 3c d3 6c 3e bd
       0.07058748 0.06733602 0.027623683 -0.0464905
000300 8f b0 16 bd 2a 20 d1 bc a6 64 ef bc 19 a5 80 bd
       -0.036789473 -0.025528032 -0.029222798 -0.0628149
000310 c2 fb 9e bd 9a 2a 5a bd b7 d9 86 3c 54 8d 35 3d
       -0.07762863 -0.053263284 0.016461236 0.044324234
000320 7e 0a 3e bd a5 eb 10 bd c0 d3 c4 bc 0b 34 01 3d
       -0.046396725 -0.035380978 -0.024026752 0.031543773
000330 28 b1 84 3d 2f a2 a0 3d a9 5d 7f bd 91 44 0e 3d
       0.064791024 0.07843434 -0.06234518 0.03473336
000340 a0 7a 12 3d 5d 8e 4e bd b4 91 2e bd 72 e0 8e 3d
       0.035761476 -0.050428737 -0.042619422 0.06976403
000350 16 04 65 3d 83 13 f6 bc bc d8 38 3c 65 b5 1d 3d
       0.0559121 -0.0300386 0.011282142 0.03850307
000360 0d 07 8a 3c cc 68 44 3d 11 45 14 3d 2e 38 1c 3d
       0.016849065 0.047951505 0.03619868 0.038139515
000370 ee a9 70 3d 50 69 86 3d 62 77 15 3c cd 10 df 3a
       0.058755808 0.065630555 0.009122701 0.0017018557
000380 34 71 98 bd 05 eb f2 3c ea 80 b1 bc 10 92 cc 3b
       -0.07443467 0.029653082 -0.021667916 0.006242998
000390 91 ed 07 3c 3d e8 86 bc 28 1e f7 3a e5 69 86 3d
       0.008296386 -0.016468162 0.0018853592 0.065631665
0003a0 18 4f ab 3c fb 02 79 3d 9c 78 6a bd 30 07 8f bc
       0.020911738 0.060793858 -0.05724393 -0.017459482
0003b0 19 34 24 3c 03 f4 8e bd c0 4d 9a bd 52 4e e5 bc
       0.010022187 -0.06980135 -0.07534361 -0.027991448
0003c0 92 f8 53 bc 8e ec 0f bd 06 f2 9e bd 86 a5 1b 3d
       -0.012937682 -0.035137706 -0.07761006 0.037999652
0003d0 fb 16 a1 bd 63 38 fc 3c d9 ee bc 3a 1e 85 24 bd
       -0.07865711 0.030788606 0.0014414444 -0.040166013
0003e0 a5 46 c6 ba 83 b9 92 bc 0e ea ac 3d 2d dc e6 3c
       -0.0015127255 -0.017910725 0.0844308 0.02818116
0003f0 02 15 25 bd 17 4c a7 3c e9 32 aa bd 24 6d a2 3d
       -0.040303238 0.020422025 -0.083104916 0.07930973

gru.bias_ih_l0 f4 [384]
000000 13 5a 9a 3d bf 3c f3 3c 2e 9e 47 bc c3 81 d9 bc
       0.075367115 0.029692052 -0.012183709 -0.026551133
000010 49 0c 20 3c df 62 49 3d 27 74 9e 3d 45 4a 81 bd
       0.009768554 0.049166556 0.07736998 -0.06312994
000020 56 07 5c bd 42 02 80 bd 4d 8e 86 3c 95 14 3d bc
       -0.053717934 -0.06250431 0.016425276 -0.011540552
000030 43 48 a9 bc dd 3e 8b bd c2 75 31 3d d3 76 bb bc
       -0.02066434 -0.067990996 0.043325193 -0.022883808
000040 a8 7d 81 3c d4 c9 a1 3d 95 19 8f bb c9 17 67 bd
       0.015806988 0.07899824 -0.0043670633 -0.056419168
000050 0a 6f 5a bc c0 90 92 b8 ab 69 9f 3c b9 d5 4e bc
       -0.013332138 -6.988784e-05 0.019459566 -0.012624198
000060 60 f0 27 3d c8 98 88 bd ac c5 26 bd e0 38 65 bc
       0.041000724 -0.06669766 -0.04071586 -0.013990611
000070 eb 0b 4d 3a 2c 97 3f bc 3d 27 49 bd 69 74 74 bd
       0.00078219053 -0.011693757 -0.049109686 -0.05968133
000080 f4 9c 44 3d 0e 1e 23 bd af ec 83 bd 88 af 80 bd
       0.048001245 -0.039823584 -0.06441628 -0.0628348
000090 f2 ed b2 38 d4 3a 2a bd 86 f4 7d bc c7 80 88 3c
       8.532022e-05 -0.04156001 -0.015500193 0.016662968
0000a0 08 33 61 bd b9 b3 47 3d 48 5f 6c 3d d5 c8 f6 3c
       -0.054980308 0.04875538 0.057708055 0.030125061
0000b0 3d 76 d4 bb 7a c1 36 3c a1 d0 21 3d bb a2 fa 3c
       -0.0064838217 0.011154527 0.039505605 0.030595174
0000c0 a8 bd f8 3c 3a 3d 71 3a b9 71 30 bd 6b cd c0 3c
       0.030363873 0.0009202544 -0.043077204 0.02353545
0000d0 38 8e 3e bd 67 a7 84 bd 16 ed 5e 3c d1 be 36 3d
       -0.04652235 -0.06477242 0.01360633 0.04461557
0000e0 45 34 4e 3d b1 b9 35 3d da c4 93 bd 0a 85 b6 3d
       0.050342817 0.044366542 -0.07215281 0.08912094
0000f0 6a 26 35 3d ce 97 8a bd 4e 16 7a 3d 79 3b b2 3d
       0.044226088 -0.06767236 0.061056428 0.0870275
000100 cd fd 49 3d e6 bc 9d bd ed 90 aa 3d c3 74 a8 bc
       0.04931431 -0.07702045 0.08328424 -0.020563489
000110 5c 1c 67 bc a7 05 c9 3c f0 b8 0e 3d 5d dc 94 3d
       -0.0141058825 0.024538828 0.03484434 0.072685935
000120 42 c8 a8 bd b0 46 59 bd 1c df 42 bd ff c4 fe 3c
       -0.08241321 -0.05304593 -0.047576055 0.031099794
000130 63 20 6c bd 7b 40 5b 3d f9 b0 be 3d 83 2d 8f 3d
       -0.057648074 0.05352829 0.093110986 0.069911025
000140 b8 5c a6 3d ef 82 95 bd 2f c7 66 bd 4a c2 bc 3d
       0.081231534 -0.07300364 -0.0563423 0.09216745
000150 5c 31 67 3d 4f 74 26 3d 12 0e 63 bd 85 98 8b bc
       0.056443557 0.040638264 -0.05543334 -0.0170405
000160 9d 11 9c 3d a6 a9 64 3d 24 79 96 bd 2a 25 c7 bc
       0.07620547 0.05582585 -0.073473245 -0.024309713
000170 ca a4 b3 bc 42 78 17 bd 76 96 bb bc c4 62 e0 ba
       -0.021929163 -0.03697992 -0.022898894 -0.0017119278
000180 52 8f b7 3d 7e 2f 8c 3d 90 45 9e 3d c3 da 53 bd
       0.08962883 0.06844996 0.07728112 -0.0517223
000190 ef 49 d2 3b 7b 33 08 bd df c3 af 3d 03 94 28 bd
       0.006417505 -0.03325222 0.08582281 -0.04115678
0001a0 fb 14 94 3c c0 86 d3 bc 64 7b 9d bd 3a a7 3f 3d
       0.01807641 -0.02582109 -0.076895505 0.04679034
0001b0 63 39 4e 3c 18 47 39 bd 04 ed f5 bc 7b 75 91 3d
       0.012586924 -0.045233816 -0.030020244 0.07102486
0001c0 28 52 41 3d 04 d1 0f 3c f4 91 85 bd 3b 50 e5 3c
       0.04719749 0.008777861 -0.06521979 0.027992358
0001d0 13 03 24 3d c6 d2 56 3d f0 bb e8 bc 0f 87 9f bd
       0.040041994 0.052447103 -0.028409928 -0.07789432
0001e0 91 41 bf bc 91 31 10 3d cf 29 a9 bc 08 65 d7 3c
       -0.023346694 0.03520352 -0.020649819 0.026293293
0001f0 f1 46 85 bd 5e 99 a2 bd 91 29 3d bd 17 87 a1 bc
       -0.065076716 -0.07939409 -0.04618222 -0.019717736
000200 03 9f 21 bd 87 e7 9f bd 30 11 22 bd 85 cb e3 3b
       -0.039458286 -0.07807832 -0.039567173 0.0069517517
000210 a8 c9 93 bd f5 34 78 3d d3 39 c7 3c a3 35 8d bd
       -0.07216197 0.06059738 0.024319565 -0.06894996
000220 3d 23 cf 3c 5d 82 30 bd 14 44 8c 3d ec d0 78 3d
       0.025285358 -0.043093074 0.06848922 0.06074612
000230 7b 82 a3 bd e3 66 8e 3d 0f 93 66 bd 26 cc 06 3d
       -0.079838715 0.06953218 -0.05629259 0.032909535
000240 b0 fe 50 3d a5 bd a1 bd 53 a1 55 3c b3 88 97 3c
       0.05102414 -0.078975 0.013038951 0.0184978
000250 05 8d 32 bd 4c e3 38 3d a1 76 9e 3d bb 2a 8d 3d
       -0.043591518 0.045138642 0.077374704 0.06892916
000260 b6 51 cd 3c 98 4a 49 bd 14 28 d8 3c 32 73 a2 bd
       0.025063377 -0.049143404 0.026386298 -0.07932128
000270 14 69 96 bd 4d aa b4 bc 34 07 68 3d 37 1d 38 3c
       -0.07344261 -0.022053862 0.056647494 0.011237434
000280 43 e6 7a 3d c8 84 9f bc 70 b5 8f bb df 5d 97 bc
       0.06125475 -0.019472495 -0.0043856427 -0.018477378
000290 47 cb 22 3d cc 25 90 3d c9 62 bf 3b 71 2f 6f bd
       0.03974464 0.07038459 0.0058406335 -0.058394853
0002a0 49 63 91 bd b8 33 11 3d 64 83 aa 3c f9 6a 9e 3c
       -0.07099015 0.035449713 0.020814605 0.019338118
0002b0 fd fc f1 bc 5a 28 3e bd a6 2c 31 bc b2 8a 5b 3d
       -0.02953958 -0.0464252 -0.010813868 0.053599067
0002c0 cd c2 9b 3c c7 6b f4 3c 3c 28 80 3c 15 4b 20 bd
       0.019013787 0.029836548 0.015644185 -0.039134104
0002d0 63 78 aa bc 78 44 a5 bd 52 6d 4b bb c4 57 a0 bd
       -0.020809358 -0.080697 -0.0031040502 -0.0782924
0002e0 f9 4a 2e bd 4d 5c 84 bc f3 86 ab bd 98 d6 89 bd
       -0.04255197 -0.016157294 -0.08375349 -0.06730384
0002f0 1f 38 20 bd 34 19 35 3d 9a e4 4a bd 4a ac 40 bd
       -0.03911602 0.04421349 -0.049534418 -0.047039308
000300 69 d9 49 bd 32 59 ba 3d 1c 38 a7 3c 48 6f 76 3c
       -0.049279604 0.09099044 0.020412497 0.01504118
000310 1f 18 66 bd 9b 70 10 3d 5e fc 1d 3d 78 79 e2 3c
       -0.056175347 0.03526364 0.038570754 0.027645811
000320 1c e7 cb bc ea d2 ce bc 87 e2 9c 3d f8 ac 7b bc
       -0.024890475 -0.025247056 0.07660394 -0.015361063
000330 25 fe 44 3d 00 86 99 bd 4f 7b a8 3d 5f 71 4a bc
       0.048093934 -0.074962616 0.08226644 -0.012356131
000340 24 4a 18 3d c1 98 4c 3d 4b 05 97 bd 3c 68 26 bd
       0.03718008 0.049950365 -0.073740564 -0.04062675
000350 b6 14 27 bd 1f e0 2f bd 2e 0d 57 3d da c2 83 bd
       -0.040791236 -0.042938348 0.052502804 -0.06433649
000360 41 87 65 3d c8 46 07 bd 3d 35 af bd f6 47 aa bd
       0.05603719 -0.033026487 -0.08555076 -0.08314507
000370 cd 07 83 3d 93 ef bd bc 74 b2 47 3d 6f 07 4b 3d
       0.06397972 -0.023185527 0.04875417 0.049567636
000380 e5 95 6c bd d2 d7 dd bb 38 d1 92 3d b4 59 a3 3d
       -0.057760138 -0.0067701126 0.071688116 0.07976094
000390 ca fb ad 3d 12 a7 0b 3d a7 05 37 bd 34 41 2a 3d
       0.084952906 0.034094878 -0.044683125 0.04156609
0003a0 d6 56 9a bd 90 b5 73 bd 4e c9 97 bc 01 72 c4 3c
       -0.07536094 -0.059499323 -0.018528607 0.023980143
0003b0 2d fb 93 3c da e4 88 bd 82 6c a8 bd 62 01 6d 3d
       0.018064106 -0.06684275 -0.08223821 0.057862647
0003c0 91 28 98 3d 41 2d a7 3d d3 59 59 3d f1 83 4b 3d
       0.074296124 0.081629284 0.05306418 0.049686376
0003d0 72 3d 9d bd 5e dc 9e 3d a5 eb 69 3d 01 40 a2 bd
       -0.076777354 0.077568755 0.057109494 -0.07922364
0003e0 0d 65 a9 3d d6 7e 24 bd b8 79 99 bc cb 30 c1 3c
       0.08271227 -0.040160023 -0.018734798 0.023582837
0003f0 96 b0 b3 3d 4f 53 43 bc b2 bf 09 3d d7 72 4f 3d
       0.087739155 -0.011921718 0.03363008 0.05064663

gru.bias_hh_l0 f4 [384]
000000 59 14 1a 3d af 07 51 bc c3 b4 f1 bb 6f 1e 46 3d
       0.03761706 -0.01275818 -0.007376285 0.048368867
000010 9f 8d 63 3c 7d 9a 8f 3d c2 5b a0 bd fc 2d 6f 3d
       0.013888746 0.07011888 -0.078300014 0.058393463
000020 cf 45 a4 bb 09 d0 17 bc 8b 5a 14 3d 12 1f 28 bc
       -0.0050132046 -0.009265908 0.03621916 -0.010261314
000030 88 e9 17 3d a8 42 86 3c fa 93 97 3c cb 66 8f 3d
       0.037087947 0.016389206 0.018503178 0.07002028
000040 34 0f 7a bd 94 52 1b bc 10 60 7d bd dd a3 59 3d
       -0.061049655 -0.009480137 -0.06185919 0.053134788
000050 41 c0 a3 bc a6 bd 86 bd 6f 03 8b 3d 01 9e ab bc
       -0.019989135 -0.06579141 0.06787764 -0.020949366
000060 4f 87 f0 bc 66 a0 b0 3c 3a f8 4d 3d 52 d3 3e 3c
       -0.029361395 0.021560859 0.050285555 0.011647062
000070 59 84 4c bd 6c 16 a8 3c 6a 35 b6 bc 64 a5 79 3d
       -0.049930904 0.020518504 -0.022242267 0.060948744
000080 e5 b4 85 bd ca 4f 6b 3d 14 61 27 3d 9d ab 5e bd
       -0.065286435 0.05744914 0.040864065 -0.054362882
000090 b9 0b a0 3c 35 a5 9c bb c6 c0 6b 3d 95 db e3 3c
       0.01953684 -0.0047804364 0.05755689 0.027814666
0000a0 1a c6 26 3d 00 68 fa bc 99 fb 42 3c 7c c9 31 bd
       0.040716268 -0.03056717 0.011900806 -0.04340504
0000b0 ac 63 6a 3d 91 26 11 3d 73 fe 01 bd 86 ac 50 3c
       0.05722396 0.03543717 -0.031736802 0.012736445
0000c0 b9 41 82 3d cf 0c 55 3d d0 66 a6 3d 3a 3e a7 3d
       0.06360192 0.05201417 0.08125079 0.08166166
0000d0 46 d3 20 3d 57 f5 3e bd 97 62 ad bd c4 91 91 3d
       0.039263986 -0.046620693 -0.0846607 0.07107881
0000e0 b8 7a 9d 3d 60 c3 2c bd fa 9e df 3c 73 23 08 bd
       0.07689422 -0.04217851 0.027297486 -0.033236932
0000f0 0a 7d 8a bd b2 f4 1d 3d ad 49 74 3d 83 e5 cf bb
       -0.067621306 0.038563438 0.059640575 -0.0063444986
000100 53 6f 76 bd 73 e6 4e bd 41 7a bc 3d 4c b8 14 bd
       -0.06016476 -0.050512742 0.092030056 -0.03630857
000110 98 15 9c 3d a5 83 98 bd 55 9d f1 bc 70 80 80 bd
       0.07621306 -0.07446984 -0.029493967 -0.062744975
000120 60 da bc 3d 15 bc 94 bd 73 39 b5 3d cd ee 2f bd
       0.09221339 -0.07262436 0.08848848 -0.042952348
000130 43 18 fa bc e8 fd 2a bb cc d0 5a 3d 94 f9 5e 3d
       -0.030529147 -0.0026091281 0.05342178 0.054437235
000140 ca 75 f3 bc 52 fd 9c bd 48 12 81 3c 79 96 97 3b
       -0.029719252 -0.076655045 0.015755787 0.004626092
000150 b1 bd 9d 3c 24 c3 94 3d 6b 09 3c 3d 3d 86 93 bd
       0.019255491 0.072637826 0.04590742 -0.07203338
000160 e2 96 9b bd 17 4f 90 bd 3b 59 c8 3c 66 1a 05 3d
       -0.07597138 -0.07046335 0.02445661 0.03249588
000170 0a 6b 38 3d 44 ae a3 3d 47 41 d7 3c 75 10 b9 3c
       0.045023955 0.07992223 0.026276244 0.022590855
000180 b3 da 35 3d a8 12 a9 3d 05 3b 3a bd be c4 e0 bc
       0.04439802 0.082555115 -0.04546644 -0.027437564
000190 c9 8d 47 bd b8 6b 81 3d 54 ff 34 3d f4 fd 89 3c
       -0.0487192 0.06319374 0.044188812 0.016844727
0001a0 ae fb 93 3d d7 62 7b 3d cb 37 af bd 7f 66 52 3c
       0.072257385 0.061373558 -0.085555635 0.01284182
0001b0 95 75 4e 3c 03 29 0c bd 23 60 ae 3d 4e dd 8f 3c
       0.012601276 -0.0342188 0.085144304 0.017561581
0001c0 d9 8a 6a bd 57 fe c7 bc c1 4d 51 3d 35 c7 c2 3c
       -0.05726132 -0.02441327 0.051099543 0.02377663
0001d0 c2 d4 ad bd ae 53 a6 3c 25 76 8a 3c 9a db 46 bd
       -0.08487846 0.020303573 0.016902039 -0.048549272
0001e0 2b 9e b8 bd 0b 24 08 3d e2 fb 2a bd 9c be 38 3b
       -0.09014543 0.0332375 -0.04174412 0.0028189784
0001f0 c2 2d 78 3d 6e 8e cc 3c 69 1d 59 3d 08 7a 86 bd
       0.060590513 0.02497026 0.053006563 -0.06566244
000200 6d cb 41 3c 02 40 33 bd 1e 88 fb bc 4d ea 56 3c
       0.011828286 -0.043762214 -0.030704554 0.013117385
000210 c7 73 70 bd b1 c7 3a bc 37 99 63 3c 1f f1 a6 3d
       -0.058704164 -0.011400149 0.01389151 0.08151459
000220 b1 0c ac bd ae 0f 95 bc ff 89 35 bd 47 00 84 3d
       -0.08400858 -0.018195953 -0.044321056 0.064453654
000230 87 8e 51 bd 95 65 e2 3c b0 ea 91 bd af 0c a5 3d
       -0.051161315 0.027636329 -0.07124841 0.0805906
000240 fa 6d 1d 3d d5 b1 b3 3c 99 da b6 3d d6 68 5d 3b
       0.03843496 0.021935383 0.08928413 0.003378441
000250 32 20 8d 3d 92 22 09 bd f8 42 9d 3c dc 51 51 3c
       0.068909064 -0.033480234 0.019196972 0.012775864
000260 34 29 9a bc ad 51 b8 3c b9 be 43 3d e2 bd 23 3d
       -0.018818475 0.022499884 0.04778931 0.03997601
000270 51 39 36 3d d5 80 40 3c 45 79 39 bc eb bc 65 bd
       0.044488255 0.011749466 -0.011320417 -0.05608837
000280 19 6d 35 bc b8 bc af bc 87 71 91 3d 25 1f 9b 3d
       -0.011073374 -0.021452293 0.07101732 0.075743
000290 8b 87 0b 3c d4 81 59 bd f5 95 18 bc 53 50 d7 bc
       0.008516203 -0.05310233 -0.009313096 -0.026283419
0002a0 30 53 43 3b 64 ac 6a 3d 72 1a 3a 3d a8 e2 a5 bd
       0.0029804222 0.05729331 0.045435376 -0.08099872
0002b0 e7 34 ad bc 0e fe 5d 3d ce 07 6e bd 2a 78 b4 3d
       -0.02114339 0.054197364 -0.058112912 0.08811982
0002c0 9c 3a f0 bc 95 a0 9d bc a2 90 ad bc 19 32 a9 bd
       -0.029324822 -0.01924161 -0.02118713 -0.082615085
0002d0 8a 1a 88 3d 19 c0 a5 bd 2a ad 24 bc f0 1d c3 3c
       0.06645687 -0.0809328 -0.010051051 0.023817986
0002e0 2a 1b 88 3d e5 93 7d 3d ac 87 a5 bc e7 01 3b bd
       0.06645806 0.06190862 -0.020206295 -0.04565611
0002f0 4e 66 ae 3d ac a5 48 3d 48 a9 1a bd 03 63 cc bb
       0.08515607 0.048986122 -0.037759095 -0.006237389
000300 80 b6 97 bd e5 03 8f bd 43 bd 18 bd 76 2f b6 3d
       -0.07407856 -0.06983165 -0.03728987 0.08895771
000310 d0 02 75 3a d9 cd c8 bc 1f 9c b6 bc 09 e3 9c bd
       0.00093464274 -0.024512218 -0.022291241 -0.07660491
000320 c1 29 1c bd 46 f4 72 bd f3 84 69 3d 78 dd 95 3d
       -0.038125757 -0.05931499 0.057011556 0.073176324
000330 3b f4 ab 3c f6 28 a0 bd 1e a3 02 3d e5 da 3e 3d
       0.020990482 -0.07820313 0.031893842 0.046595473
000340 76 a0 96 3d 32 d7 9c bd 19 36 6d bd 36 65 95 bc
       0.07354824 -0.07658233 -0.05791292 -0.018236738
000350 6f a8 b0 3d c1 30 24 3c bc a7 ca 3c 2e 5e 9e bd
       0.08625876 0.010021389 0.024738185 -0.07732807
000360 70 96 fc 3b 3b 61 52 bc 20 16 64 3d a3 4f 6a bd
       0.0077083632 -0.012840564 0.055685163 -0.057204854
000370 c3 0d 4a bd d1 20 a3 bd 92 29 a8 bd 4b 2f 0f 3d
       -0.04932953 -0.079652436 -0.08211054 0.03495721
000380 9e 57 25 3d 48 76 36 ba 02 70 56 3d 30 97 8d 3d
       0.04036676 -0.00069603743 0.052352913 0.06913602
000390 49 bc 94 bd f5 03 0a 3d b3 22 8a 3d 0f b1 8f 3d
       -0.07262475 0.03369518 0.067448996 0.07016193
0003a0 b7 b5 b0 3d 01 c3 02 bd 82 70 98 bd 00 2c 63 bd
       0.08628409 -0.03192425 -0.07443334 -0.055461884
0003b0 93 5e 53 3b 9e f1 9f bc b2 87 9f 3d 5a 94 54 bd
       0.0032252416 -0.019524392 0.07789554 -0.05189929
0003c0 52 06 8f bd 99 ae 85 bd c4 d6 df bc eb b5 2b bd
       -0.069836274 -0.065274425 -0.027324088 -0.041921537
0003d0 60 9e ce 3c b2 bd 3e 3c 93 47 de bc cd 07 6c 3d
       0.025222003 0.011641907 -0.027133739 0.057624627
0003e0 3f b5 36 3b 82 cf cd bb d4 d4 71 bd 9c 1a 28 3d
       0.0027879027 -0.0062808404 -0.05904086 0.041041
0003f0 10 81 9b 3d dc ce 20 3d a4 9b 31 bc 89 76 7d bb
       0.07592976 0.039259776 -0.01084033 -0.0038675389

gru.weight_ih_l1 f4 [384, 128]
000000 72 1f 90 bb 8c 29 61 bd 78 43 0e bd 74 9f 4b 3d
       -0.00439828 -0.054971263 -0.034732312 0.049712613
000010 ab 28 a4 3c a1 0a aa bd 35 8a c1 3b 1b a7 51 bd
       0.020038923 -0.083028086 0.005906368 -0.051184755
000020 5a 85 8a bd 88 e6 ac 3d 7f 77 9a bc d1 5b c8 3c
       -0.06763716 0.08442408 -0.018855808 0.024457844
000030 ca af 04 3d 91 fa a9 bd ab 52 87 3c 78 ba 80 3d
       0.032394208 -0.08299745 0.016518911 0.06285566
000040 38 e6 7a 3d 9f 2a 6a 3d 2c af 1b bc fa 14 7e 3d
       0.06125471 0.057169553 -0.009502213 0.062031724
000050 c2 1d 2c 3d cf 43 b0 3d 66 92 9b 3d ca 66 a1 bd
       0.042020567 0.086066835 0.07596283 -0.078809336
000060 21 d6 5f 3d 70 7e 96 bd 95 ca ff ba 5a 39 f1 3b
       0.05464757 -0.07348335 -0.001951533 0.007361573
000070 1a d9 a0 3d c0 fa e6 bc f1 a8 be 3d 6f ad 76 3d
       0.07853909 -0.028195739 0.09309567 0.060223993
000080 a2 4c 93 bd b2 8a a0 3d 98 48 da 3c 2e da 01 bd
       -0.07192351 0.07838954 0.026645944 -0.031702213
000090 91 90 a2 bd 22 4c 9a 3d c1 1e 59 bd 2b 3e 0a 3c
       -0.0793773 0.075340524 -0.053007845 0.008437674
0000a0 b2 ec b0 bc d2 4a aa bd 30 34 95 3d 9d 17 3f 3d
       -0.02159724 -0.08315052 0.072853446 0.04665338
0000b0 0b 91 3e bc 25 ce 5d bd b2 93 9b bd 1b 02 98 bd
       -0.011631261 -0.054151673 -0.0759653 -0.074222766
0000c0 9e 12 85 bd cc c9 19 bd 34 c1 43 bd 4d d4 68 bd
       -0.064976916 -0.037545964 -0.047791675 -0.05684309
0000d0 2b e6 48 3d bf 88 94 3d c4 68 66 3d 95 91 ec 3c
       0.04904763 0.07252645 0.056252256 0.028878013
0000e0 6b 2b b0 bd 55 e7 5d bd 08 db 0f 3c a3 0d 50 3d
       -0.08602031 -0.054175694 0.008780248 0.050794255
0000f0 c6 2b 1c bd 6f 92 a7 3d d2 77 0d bd b9 3f 91 bd
       -0.038127683 0.08182227 -0.034538098 -0.07092232
000100 49 1a 2a 3c 0a aa e9 3c 23 e9 8e 3d 1a a0 29 bd
       0.010382243 0.028523464 0.06978061 -0.04141245
000110 9b 62 d8 bc 81 76 d5 3b b1 a2 3c 3d 80 96 9d 3d
       -0.026414206 0.006514371 0.046053592 0.07694721
000120 04 8d 9b bd b9 78 db bc 85 10 f6 bc 97 34 a5 ba
       -0.07595256 -0.026790963 -0.030037174 -0.0012604174
000130 e9 7a 2b 3d 5c d1 e3 ba 9f 5e 25 bc 9c e5 84 bd
       0.041865263 -0.001738112 -0.01009336 -0.06489107
000140 05 4a 17 bc 50 aa 17 3d 3d 47 c0 3c 3b 4c 25 3d
       -0.009233956 0.037027657 0.023471469 0.040355902
000150 24 25 94 3c 03 4f 9f bd 5e bf 90 3d 32 11 7d bd
       0.018084116 -0.07778742 0.070677504 -0.061783977
000160 ce 21 51 3c 32 07 d7 bc 8e ac d0 3c 79 e2 db 3b
       0.012764407 -0.026248548 0.025472905 0.0067103473
000170 59 29 58 3c 86 5c b3 bc 46 44 05 3c 79 86 38 bd
       0.013193452 -0.021894705 0.008133953 -0.045050118
000180 97 fd 9a bd d3 b1 71 3d 17 41 a5 bd 40 06 1b bc
       -0.075679 0.059007477 -0.080690555 -0.009461939
000190 80 f9 81 3d 66 98 57 3c a6 53 97 3d d7 64 a1 bd
       0.063464165 0.013158893 0.073890015 -0.07880562
0001a0 ce 9e 2d 3d f0 ab 88 3d 46 4d 1f 3d e6 b4 b5 3d
       0.042387776 0.066734195 0.038892053 0.08872394
0001b0 21 4e 65 3d 35 3d 02 bb c3 32 a4 bb b7 3d 04 bd
       0.055982713 -0.0019872908 -0.005010934 -0.03228542
0001c0 81 4b e3 3b e4 4c af bd f1 f4 b3 3d 29 a7 bd bd
       0.006936491 -0.085595876 0.08786953 -0.09260399
0001d0 65 0d 76 bd 15 67 b9 bd 47 9c df 3c 00 95 95 bd
       -0.060071368 -0.090528645 0.027296199 -0.0730381
0001e0 ec 71 e1 3c e1 7c 37 bd d1 e0 62 3d 6c df 0d 3d
       0.027520142 -0.04479683 0.055390183 0.0346369
0001f0 83 02 24 3d 1c c1 bf 3c b7 3f eb bb 90 7c b8 3c
       0.040041458 0.023407511 -0.0071792263 0.022520334
000200 8c ee 5a bd d7 c0 ab bd 98 61 ec bb db d3 93 bd
       -0.053450152 -0.08386391 -0.0072137825 -0.072181426
000210 40 b5 5c bd fc 19 50 3d b1 b0 60 bd 1b 90 23 3d
       -0.05388379 0.05080603 -0.054856006 0.03993235
000220 97 6c af 3c c5 1b 92 3d 9b 63 50 3c 33 74 43 bd
       0.021414084 0.07134203 0.01271906 -0.047718238
000230 6b 0a af 3d 4d 2d 0b 3d cc 2b b3 bd 64 e2 b5 bc
       0.08546909 0.03397875 -0.08748588 -0.022202678
000240 24 1f a8 bd a9 d0 9f 3d e9 d1 c6 bc f8 76 78 bd
       -0.082090646 0.07803471 -0.024270015 -0.060660332
000250 95 36 01 bc a8 9f 0a bd bf d8 21 bd c8 62 83 3d
       -0.0078865485 -0.033843666 -0.039513346 0.064153254
000260 71 89 85 3d fb 94 3f 3d f2 1a 81 bd 87 f3 38 3d
       0.065203555 0.04677294 -0.063039675 0.04515412
000270 6a 84 d3 bc 9d 13 86 3a 03 9e 44 3d 81 64 67 3d
       -0.025819976 0.0010229234 0.048002254 0.056492332
000280 30 61 8d 3d 0e 78 ab 3c da 34 20 3c 38 ac d3 3b
       0.06903303 0.02093127 0.009778226 0.006459739
000290 16 c4 1a 3c 0d 16 34 bd d1 8e 28 3d f7 24 a3 bd
       0.009446165 -0.04396634 0.041151825 -0.07966035
0002a0 fa ba 9d 3d e2 20 01 3c ee ba 9f 3c 7d 4d 93 3d
       0.077016786 0.007881375 0.019498315 0.07192514
0002b0 94 8d 02 bd 0e 07 b0 bd 88 85 46 3d 3e 00 24 bc
       -0.0318733 -0.085950956 0.04846719 -0.010009823
0002c0 a6 90 1b bd 08 75 e9 bc 53 6d 70 bd 5a ef 50 3d
       -0.037979744 -0.028498188 -0.05869801 0.051009513
0002d0 99 6c 15 3b 2c a3 72 bd 02 4c 9f bd 83 ed 90 3d
       0.0022800325 -0.059237644 -0.07778169 0.07076552
0002e0 a7 70 3d 3d 22 da 27 bc 7a 9b ab 3d 42 2b 98 3a
       0.04625001 -0.010244878 0.08379264 0.0011609572
0002f0 32 94 0f 3d dd 8e 0c 3c 72 21 54 bc 89 d8 16 bd
       0.03505344 0.008578983 -0.012947427 -0.036827598
000300 40 63 4b 3d 8c a1 ae 3d 06 e1 f1 bb 33 4c 2c bd
       0.0496552 0.08526906 -0.007381561 -0.042064857
000310 fb 46 34 ba 22 5e 55 3d ef 14 b3 bd e8 61 1a 3c
       -0.0006877032 0.052091725 -0.08744227 0.009422757
000320 32 54 fa 3c fc fa e1 bc 28 56 69 bd 55 f9 42 3d
       0.030557726 -0.027585499 -0.05696693 0.047601063
000330 e5 6a 3a bd de 8b 07 bd 2f 07 c6 bc 98 73 80 bd
       -0.0455121 -0.033092372 -0.024173347 -0.06272048
000340 44 66 a2 bc 62 99 28 3d 80 68 7a 3d 97 5e 57 ba
       -0.019824155 0.041161902 0.061134815 -0.0008215694
000350 88 86 c9 3b 2b 60 46 bd 17 76 30 3d 11 2a 05 3d
       0.0061500706 -0.048431557 0.04308137 0.03251082
000360 04 f3 e6 bc 36 43 c5 bb 7c ba 5b 3c e8 a5 4b bd
       -0.02819205 -0.006019975 0.013411161 -0.049718767
000370 26 86 2b bd fa b6 2b 3d 4a c4 12 3d 09 4a 83 3d
       -0.04187598 0.041922547 0.035831727 0.064106055
000380 f3 d5 2e 3d 2f 3a 09 bd fc a8 5d bd 0c d9 54 3d
       0.042684507 -0.033502754 -0.054116234 0.051964805
000390 38 c8 46 3c d9 24 29 3c a3 dd 87 bc fa e2 6c bd
       0.012132697 0.010323727 -0.016585177 -0.05783365
0003a0 eb 6c 4b 3c c7 f2 c2 3c e4 38 11 bc 8c 08 38 3d
       0.012416105 0.023797406 -0.008863661 0.044930026
0003b0 7f a8 82 bd 9c 54 00 3d 28 ca 04 bc a1 e5 1d bd
       -0.06379794 0.03133069 -0.008104838 -0.03854907
0003c0 e9 a3 28 bd 51 62 b1 3a 93 3c a7 3d f0 94 88 bd
       -0.041171942 0.0013533329 0.081658505 -0.066690326
0003d0 af db 5b 3d dd c9 ac 3d c9 a9 74 bd 14 05 55 3d
       0.053676303 0.0843694 -0.059732232 0.052006796
0003e0 91 09 81 bd bd d4 5b bd 4b 10 24 bd 75 de b1 bd
       -0.06300653 -0.05366968 -0.0400546 -0.086850084
0003f0 ed a2 c9 3b 5f 0e 9a 3d b2 01 9f bc c6 b0 86 bd
       0.0061534555 0.07522272 -0.019409988 -0.065766856

gru.weight_hh_l1 f4 [384, 128]
000000 13 8a 18 bc 76 78 a3 3c 37 b5 24 bd 3e 6d 62 bc
       -0.009310263 0.019954901 -0.040211882 -0.013819991
000010 5a 37 81 bc 00 33 80 bd a4 72 bc 3c e4 47 82 3c
       -0.015773464 -0.062597275 0.023003884 0.01590342
000020 08 fc 0e 3d a6 3e 65 3d 8b 14 d4 bc f1 f4 84 bd
       0.034908324 0.05596795 -0.025888702 -0.06492031
000030 96 61 9a 3d af 5e 28 bd ed ca 92 3c 48 8e 53 3d
       0.07538144 -0.041105922 0.017919028 0.05164936
000040 2c 99 cb bb a5 64 4c bd 54 5d b2 bc 20 3a a5 3d
       -0.006213328 -0.04990067 -0.021773018 0.08067727
000050 0e 5d a3 3d e0 5f 1c bd ba b8 99 bc c0 ac c0 3d
       0.07976733 -0.03817737 -0.018764842 0.094079494
000060 c3 52 be bc c9 06 73 bd 30 a2 33 3d 53 7f 81 bc
       -0.023232823 -0.059332643 0.043855846 -0.015807783
000070 09 63 6e bd a6 10 53 3d df e6 21 bd 61 cb 59 39
       -0.058199916 0.05152955 -0.039526816 0.00020770497
000080 fc 16 a9 bd 82 e9 de bc 0b 15 8a 3d ef 4a 00 3d
       -0.08256337 -0.027210955 0.06742295 0.031321462
000090 08 e6 97 bd 1b 22 a9 3d 7b b6 53 3d 41 41 83 bd
       -0.07416922 0.08258458 0.0516877 -0.064089306
0000a0 d7 eb 87 3d 18 3e 88 bd 56 b5 78 bd 39 58 4f bd
       0.0663678 -0.066524684 -0.06071981 -0.050621245
0000b0 c5 58 31 bd 26 79 83 3d 1b 86 04 bd 38 32 35 bb
       -0.043297548 0.064195916 -0.032354455 -0.002764834
0000c0 a1 64 7a bd d4 50 67 3d 72 96 88 bd 0e ca a1 3d
       -0.061131123 0.056473568 -0.0666932 0.07899867
0000d0 75 1f 0b bd 6b 93 3b bd 88 14 95 3c af b5 1f 3d
       -0.033965547 -0.045794886 0.018198267 0.038991626
0000e0 93 78 57 3d bd 93 37 bd 3c 76 83 3d 5a 9c 94 3c
       0.052605223 -0.04481863 0.06419036 0.01814096
0000f0 8f 4d b9 3d 93 49 af bd 57 d0 a8 bd b8 32 69 3d
       0.09047996 -0.08558955 -0.08242863 0.056933135
000100 7d 0c b5 bc 98 1c 95 bd 7b f0 5b 3d 41 3d b1 bc
       -0.022100681 -0.072808444 0.053696137 -0.021635653
000110 66 26 91 bd ad c2 d1 3c 48 e9 95 3d f4 b0 3b 3d
       -0.07087402 0.025605524 0.073198855 0.045823053
000120 e3 25 59 bd a3 29 c4 3c 04 11 89 3d a0 fa 10 3d
       -0.053014647 0.023945635 0.066926986 0.035395265
000130 f8 4b a3 bd d5 aa 8e 3c 0b 83 3b 3d e4 89 7f bd
       -0.07973474 0.017415443 0.04577927 -0.062387362
000140 b8 15 ae 3b d2 8f 4d 3d be 1b a4 bb a0 86 33 3d
       0.0053126477 0.050185986 -0.00500819 0.04382956
000150 c1 37 01 3d e6 e5 8d 3d f7 1d 45 3d c4 65 01 3d
       0.03154731 0.06928615 0.04812428 0.031591192
000160 9a 2b ee 3c ad 98 ab bd 32 08 a1 3a 24 fe c9 ba
       0.029073525 -0.0837873 0.0012285768 -0.0015410823
000170 45 b0 bd bc 51 4a 0e bd f7 53 82 bd 8b d3 73 3b
       -0.02315534 -0.034738842 -0.06363671 0.0037204947
000180 e8 5d 50 bd a1 f3 8a 3d 6c a4 c5 3c f2 cd ed 3c
       -0.050870806 0.0678475 0.024126254 0.029028866
000190 69 58 5c bd f3 b3 3c 3d 3c 0d ea 3c 65 8b b5 bd
       -0.053795252 0.04607005 0.028570764 -0.08864478
0001a0 d1 ed 65 3d 66 6a 4e bd 9d 4b a6 3d 7c b7 15 3d
       0.056135003 -0.05039444 0.08119891 0.036551937
0001b0 25 26 4d bc e5 f9 17 3d 8c 0f 8c bd 53 80 13 3d
       -0.012521301 0.037103552 -0.06838903 0.03601105
0001c0 29 2b 2a 3c e4 a0 ad 3c 60 2c ad 3d d5 25 a8 bd
       0.010386267 0.021194883 0.084557295 -0.08210341
0001d0 ef 57 9b bd f8 ae ed 3b 84 27 48 bd 26 83 3f bd
       -0.075851314 0.007253524 -0.04886581 -0.046755932
0001e0 89 4c 6d 3d df 3e 90 bd 45 55 3a 3d ba bf a3 bd
       0.057934318 -0.07043242 0.045491476 -0.07995553
0001f0 0d b9 3e bd b1 95 56 bd 75 50 50 bd 84 6a 00 3d
       -0.046563197 -0.05238885 -0.05085798 0.03135158
000200 3f 8d cc bc 52 6f 36 3d f3 74 05 bd 98 4a e6 3c
       -0.024969695 0.044539757 -0.032582235 0.028111741
000210 07 0d ae 3c 5b 16 d0 3b 52 4d 82 3d 63 e6 1b bd
       0.021246446 0.006350321 0.06362404 -0.03806151
000220 c9 65 1b bd 6c cd 82 bd 8b 22 15 3d b4 35 8b 3c
       -0.037938867 -0.06386837 0.036409896 0.016993381
000230 d9 0f 8b 3d 31 0a b1 bd 23 f8 7b 3d b5 98 6c 3c
       0.06790132 -0.08644522 0.06151594 0.014440705
000240 e0 fd 52 bd 67 9e 4b bd fc 8a 78 3d e5 fd da 3b
       -0.051511645 -0.04971161 0.06067942 0.0066830986
000250 6c 47 8a 3a 13 74 9f bd ad 12 37 bd a1 92 a3 bc
       0.001054985 -0.07785811 -0.044695545 -0.019967379
000260 6f a7 a1 3d e2 8a 0b 3d 62 5b 2e 3d 0c c1 3e 3c
       0.078932635 0.034067996 0.04256762 0.011642706
000270 32 01 0e bc d0 2e c1 3b bb ef 75 3c a4 83 1f bd
       -0.008667277 0.005895473 0.0150107695 -0.0389439
000280 06 e1 e6 bb b1 b8 3a 3d b8 b0 12 3d af 76 75 bd
       -0.007045868 0.04558629 0.035813063 -0.05992764
000290 10 6f ef 3c 2f 88 34 3d 0b d3 73 3d f0 a6 80 bd
       0.029227763 0.044075187 0.059527438 -0.06281841
0002a0 59 bf 4f 3c 74 0d 0e bd 93 6c 48 bd 3b 92 23 3c
       0.012679898 -0.0346808 -0.04893167 0.0099835945
0002b0 fa 5f 79 3d e2 3a 64 3d 63 2b ff bc 5b 5c b2 3d
       0.060882546 0.055720218 -0.031148618 0.08709022
0002c0 d8 80 08 3d 0f ba b0 bd cd ff 7a bc 28 48 cc 3c
       0.033326 -0.08629238 -0.015319777 0.02493675
0002d0 eb f2 37 bd 4c 80 70 3d bd 32 7d 3d 32 5c b1 3d
       -0.0449094 0.058716103 0.061815966 0.08660163
0002e0 5c aa 9d bd ee 10 a6 bd 17 e6 a1 bd 4b 3f 89 3d
       -0.07698509 -0.08108698 -0.07905214 0.06701525
0002f0 d1 4a 98 bc 74 c0 b0 3d 29 01 9e 3d d5 e1 9f 3d
       -0.018590363 0.086304575 0.07715065 0.07806746
000300 3f db 6f 3c d0 1a 11 bd ad 0f 9c 3c 87 95 4f 3c
       0.014639675 -0.03542596 0.019050444 0.012669927
000310 41 60 70 bd a1 54 1d bc 57 90 8e 3d ae e8 1a 3b
       -0.058685545 -0.009602697 0.069611244 0.0023637223
000320 78 86 35 bd 14 0b 80 bd 5d 39 81 bd e2 7b 86 3d
       -0.044317693 -0.06252113 -0.06309769 0.065665975
000330 2a b2 8f bc 27 c5 9e bd 13 44 a5 3b a0 32 9e 3d
       -0.01754101 -0.077524476 0.0050435155 0.077245
000340 cf bf 7a 3d b9 8d ca 3c f3 e5 20 bd fe f1 df bc
       0.06121808 0.024725782 -0.039281797 -0.02733707
000350 32 b0 07 bd 7c 81 80 bc e4 c6 7a bd 37 b2 8b 3d
       -0.033127017 -0.015686743 -0.061224833 0.06821101
000360 72 9f 19 bc af f2 2c 3c ac 0e 06 3c 9e e4 04 bd
       -0.009376394 0.010555907 0.008182209 -0.03244459
000370 75 d2 ad bd 6e a7 43 bb df 15 ec 3c f6 44 89 3b
       -0.08487407 -0.0029854435 0.028819023 0.004189129
000380 8c 88 9d 3c 0d f2 82 bd ec bb 5d 3b 69 b6 cc 3c
       0.01923015 -0.06393824 0.0033833934 0.024989324
000390 86 71 72 3d 8a 68 3a bb f4 0a 4a 3d b6 71 21 bd
       0.059190296 -0.0028443658 0.049326852 -0.039415084
0003a0 08 13 b3 3c 58 6f 9f 3d 75 b7 8a bd 4d 34 10 3c
       0.02185966 0.07784909 -0.06773273 0.008801532
0003b0 79 22 96 3d da 86 aa 3b a8 17 6f bd 2c 28 d2 bb
       0.07330794 0.005204064 -0.05837217 -0.0064134803
0003c0 19 ed a7 3d 4c 03 79 3c 49 29 08 3d cc ef 25 3d
       0.0819952 0.01519854 0.033242498 0.04051189
0003d0 24 b4 a8 bd 1d 65 7c bd 00 39 5e 3d dc bf c2 3c
       -0.08237484 -0.061619867 0.05425358 0.023773126
0003e0 fa c1 a7 bd c8 3f 9a 3d a3 68 7b bb a4 0c 55 bc
       -0.08191295 0.075316966 -0.003836193 -0.013003502
0003f0 7a 1e 8c 3d bd b1 19 bb 07 4a 9d bd 8e 98 4a 3d
       0.068417504 -0.0023451888 -0.07680135 0.049461894

gru.bias_ih_l1 f4 [384]
000000 59 0a 88 3b 16 11 8c bd 1c b7 e6 3c b9 7c a6 bd
       0.004151624 -0.068391964 0.028163485 -0.08129258
000010 6e ed 3a bd af c5 84 bd 9d ae ce 3b 4e 9e 1c 3d
       -0.045636587 -0.06483018 0.0063074366 0.03823691
000020 5c 60 6d 3a 30 71 0a bc fb af 44 bd d9 1f 8c 38
       0.0009055191 -0.008449838 -0.04801939 6.681652e-05
000030 e7 92 9d 3d 35 b6 81 bb 02 84 77 bd 5e 88 10 3d
       0.07694035 -0.0039584883 -0.060428627 0.0352863
000040 cd 04 be 3c 14 75 4b 3d b2 b7 3c bd 64 52 b4 3d
       0.023195649 0.0496722 -0.046073623 0.08804777
000050 64 bb ad 3d b9 42 87 3c 4b 4e 0c 3d 4f 2e ab 3d
       0.084830076 0.016511308 0.034254353 0.08358442
000060 0c b4 a1 3c 88 aa 40 3d c2 18 68 bd 02 01 98 3d
       0.019739173 0.04703763 -0.056664236 0.07422067
000070 3f f0 82 3d 38 9e 4c 3c 49 67 99 bd f3 c1 94 3d
       0.063934796 0.012488894 -0.07490403 0.072635554
000080 7d 74 2d bd 5f 2a c3 3c f3 cf 3a bc 3f 42 3d bd
       -0.04234742 0.023823915 -0.011402118 -0.046205755
000090 ee 03 99 bd e9 7c bd 3d c9 93 7c 3d ee 66 fa 3c
       -0.07471453 0.0925234 0.061664376 0.030566659
0000a0 79 d5 aa bb 1b 27 18 3d fd ad b5 3d 50 ef 13 3d
       -0.005213436 0.03714667 0.08871076 0.036116898
0000b0 1b 33 fb 3c 76 a9 ae 3d 2b 19 dd bc 8c 0b a2 3a
       0.030664017 0.08528416 -0.02698954 0.001236306
0000c0 a1 a0 a5 3d 57 7a 3a 3d c6 8f 8a bd e4 2e 4e 3c
       0.08087278 0.04552683 -0.06765704 0.012584422
0000d0 6c 7a 45 3c c2 3e 9e bd 82 b3 9f bd a9 d0 bc bc
       0.012053113 -0.07726814 -0.0779791 -0.023048716
0000e0 a1 53 88 bc b4 c4 52 bd b6 38 a9 3c 19 de a4 bd
       -0.01664144 -0.051457122 0.020656925 -0.08050174
0000f0 30 05 ff 3c 11 e5 b4 3d 97 f4 5d bd d8 cb 0b bd
       0.031130403 0.088327534 -0.054188337 -0.034129947
000100 bb 2c 8a bc e2 49 f6 bc 7e 97 b7 3d 93 cd 8a 3c
       -0.016867032 -0.030064527 0.08964442 0.016943729
000110 10 a7 9f bd 36 a0 02 3d 9a 0f c2 bc 5a 9d 3f bd
       -0.077955365 0.03189107 -0.02368908 -0.04678092
000120 55 a9 63 bd e6 d3 01 3d ba da 51 bb 9c 5b 98 3c
       -0.05558141 0.031696223 -0.003202124 0.01859837
000130 06 65 34 3d d4 46 4d bd a3 ff 44 bd 1a ce 87 3d
       0.044041656 -0.050116375 -0.048095357 0.06631108
000140 7c 1a a1 bd 7b 0b 98 bd 60 62 a6 bd 1b 6b 43 bd
       -0.078663796 -0.07424065 -0.08124232 -0.047709566
000150 0f 4f 32 bb 98 0a 85 3d 2f a3 93 bd 72 0c ac bd
       -0.0027207767 0.06496161 -0.07208859 -0.08400811
000160 66 60 b2 3d 4d c8 ae bd c1 30 6f 3c b6 43 97 bd
       0.08709793 -0.08534298 0.014599026 -0.07385962
000170 a5 ef fd bc a0 31 c9 bc 72 4c 91 38 b3 db ae 3d
       -0.03099806 -0.024559796 6.928378e-05 0.08537998
000180 ca 6f 5b 3c b7 99 b2 3d 1a b5 14 bd e0 5c 23 3d
       0.013393352 0.08720725 -0.036305524 0.039883494
000190 70 8b 40 3d 7f 74 5c bd a1 5b 25 bd af 05 37 3d
       0.047007978 -0.053822037 -0.040370587 0.044683155
0001a0 8f 5a ad 3d b7 ad 86 bd 4d 80 1a 3d 4f fb b4 3d
       0.08464538 -0.06576102 0.037720013 0.08836996
0001b0 fa 36 9a bd 5d 37 3e 3d 30 b6 51 bd dc 75 24 3d
       -0.07530017 0.046439517 -0.05119914 0.040151462
0001c0 b5 5a 43 3d 15 17 3e bd 12 d6 96 3b 9a 90 8b 3d
       0.047693927 -0.04640873 0.004603156 0.0681469
0001d0 e4 d8 6a 3d a7 03 ff 3c 0e 11 bf 3b 3e 3e 7f bb
       0.05733575 0.031129671 0.0058308905 -0.0038947011
0001e0 3c 6c 9a ba 87 d7 53 3c 24 33 4f 3d 54 13 64 bd
       -0.0011781524 0.012929804 0.05058588 -0.055682495
0001f0 22 3d a6 3d d0 c4 85 bd 43 70 ba 3d ec ae 28 3b
       0.08117129 -0.0653168 0.091034435 0.0025739027
000200 0e 7f 61 bd 1e 8d 90 3d 96 e4 a5 bb 7d f2 20 bc
       -0.05505281 0.07058166 -0.00506265 -0.009823439
000210 66 b5 3a 3d 47 bc 7e bd 1a 5e 27 3d dc c9 0d bd
       0.04558315 -0.062191274 0.040861227 -0.034616336
000220 6e 2d b9 bb 64 01 3e bd b3 d3 47 3d 3c c5 92 bd
       -0.0056511676 -0.046388045 0.048785876 -0.07166526
000230 3f 93 87 bd 11 45 ee 3c 5b 92 04 3d b3 50 63 3b
       -0.06619882 0.029085668 0.032366138 0.0034685552
000240 d9 95 4d 3a f2 3f 9e bd 7c 17 94 bd 07 f4 cb 3b
       0.00078424584 -0.0772704 -0.07231042 0.0062241587
000250 66 83 aa 3d 4d 9e 9a 3d 9e 01 0d bc 0a 30 ed 3c
       0.083258435 0.07549725 -0.008606343 0.02895357
000260 8c e9 51 bd 99 dc 6a bd f8 e0 fc bc e1 48 b2 3d
       -0.05124812 -0.057339285 -0.030868992 0.08705307
000270 c2 0f 2c bd 84 da 12 3c ac 80 af bd 38 67 8a bd
       -0.042007215 0.008963231 -0.08569464 -0.06757969
000280 c2 94 85 3d 4e 51 7c 3d 42 34 ad 3d 54 f3 7b 3d
       0.06522514 0.061600976 0.08457233 0.061511353
000290 8c 55 27 bd 12 04 94 3d 9c 35 9d 3d 30 5a 28 3b
       -0.04085307 0.07227339 0.07676241 0.0025688522
0002a0 65 10 82 bd 77 a5 26 bd bf 2d aa bd 04 a8 97 3d
       -0.06350783 -0.040685143 -0.083095066 0.07405093
0002b0 16 96 55 ba 1d 14 b6 b9 eb 12 50 bd 10 70 af 3c
       -0.000814767 -0.0003472873 -0.05079929 0.02141574
0002c0 c0 38 84 3c 9f e3 9b bd 15 7a 67 bd d3 0f a1 bc
       0.016140342 -0.07611775 -0.05651291 -0.019660866
0002d0 8e 96 2a 3d 84 05 8c 3d f4 fd 51 3d 28 f6 22 3d
       0.041647486 0.068369895 0.05126758 0.039785534
0002e0 46 22 48 bc d1 4a 05 3d 76 48 43 bd c7 3d 8c bd
       -0.012215203 0.032542054 -0.047676526 -0.068477206
0002f0 39 59 5e 3d 42 0a 17 3d 9f c0 67 bc 75 0f 5d 3d
       0.054284308 0.036875017 -0.014145046 0.05396982
000300 1c 16 c1 bc 0d b9 b1 bd 0e 27 86 bd c2 d8 86 bd
       -0.023570113 -0.08677874 -0.06550418 -0.06584312
000310 c9 4b 8e 3d 0e 2a c6 3b b5 90 98 3c ab 64 d0 3b
       0.069480486 0.006047494 0.01862369 0.006359657
000320 24 1f 93 bd 0e 6c e3 bc 83 1f 1c 3d eb c5 36 3c
       -0.07183674 -0.027761485 0.03811599 0.011155586
000330 c3 70 af bc e4 5a ad 3d ca 9c 6a 3d e0 50 e0 3c
       -0.021416074 0.08464602 0.057278432 0.027382314
000340 5e 10 5c bd 8c 2a 8a bd a0 d2 ae 3d f9 78 6f 3d
       -0.053726546 -0.067463964 0.08536267 0.058464978
000350 39 eb 9d 3d 63 b7 9a bd a1 43 90 bd d2 5b 5b 3d
       0.07710881 -0.075545095 -0.07044149 0.053554364
000360 17 be 63 bd c2 85 84 bd 21 8d 76 3d ed 66 8c 3d
       -0.055601206 -0.06470825 0.060193185 0.06855569
000370 d7 8c 91 3c df cb 7f bd 1a ef a3 3d de 0f 1a 3c
       0.017767353 -0.062450286 0.080045894 0.009403197
000380 1e d0 de 3c 91 2b 6d 3b fa 2d a2 3d 14 3c ea 3c
       0.027198847 0.0036189298 0.079189256 0.0285931
000390 d0 b9 2c bc e5 bd 34 bd 06 45 80 bd 44 09 78 bd
       -0.010542348 -0.04412641 -0.06263165 -0.06055571
0003a0 c8 1f 81 bd 1f f6 b9 bc 9e 0d 52 bd 54 21 b2 bc
       -0.0630489 -0.022700367 -0.051282518 -0.021744408
0003b0 03 c5 b0 3d 39 05 2c 3d cf 73 f2 bb 67 92 3e 3b
       0.08631327 0.04199717 -0.0073990594 0.0029078962
0003c0 b8 3a 9e 3d cc fe 5b bd 0c 62 bb 3b 22 3c 89 3d
       0.077260435 -0.05370979 0.005718475 0.067009225
0003d0 0f 49 14 3d 3f f7 85 bd be 3e 9d 3c 72 8f f7 3c
       0.036202487 -0.06541299 0.019194957 0.030219767
0003e0 02 74 86 bc ef 71 22 3d 0e 41 93 bd e1 77 1a 3d
       -0.016412739 0.039659437 -0.071901426 0.03771198
0003f0 41 19 60 bd bd 4e a6 3d d5 9a 9e 3c 62 10 ac bd
       -0.054711584 0.08120487 0.019360939 -0.08401562
