vanillaRNN_trained.pth (torch, 335547 bytes, 13 tensors)

rnn.weight_ih_l0 f4 [128, 1]
-0.083712205 -0.0842979 0.010535844 0.030780764 -0.014952042 -0.021442603 -0.04264455 -0.043489728
-0.06652179 -0.08934585 -0.0434884 -0.044512626 -0.0025677928 -0.030437807 0.008031194 0.03381925
0.06004989 0.089545235 0.07913993 0.0062439726 0.073156476 0.0019053161 0.011202625 -0.010105309
-0.0032159616 0.02331594 0.06900349 -0.07075653 -0.03698948 -0.07104888 0.089895055 0.019759985
0.07917384 -0.03064605 -0.012750804 0.020398684 0.024534876 -0.06847344 0.03085016 0.02968246
0.035027053 0.05183717 -0.034548398 -0.03843952 -0.06072063 -0.013325376 -0.024795007 0.07869245
-0.05506871 -0.060565125 -0.06430722 -0.051315837 0.08072955 -0.050435416 -0.04646048 0.045413774
-0.085606195 0.08480877 0.0073012067 -0.011828106 -0.0784745 -0.08882028 -0.02630248 -0.06289849
-0.048753306 -0.07330052 0.047395814 -0.015941469 -0.0012569369 -0.038517073 -0.074411266 -0.04867641
-0.008259856 0.078484185 0.00039339336 0.06340626 -0.034884118 -0.050151788 0.0033316822 -0.08269868
-0.061621465 0.0035251535 0.04290256 0.004594482 0.033721942 -0.07608095 -0.08003357 0.0680368
0.089473754 -0.052626446 0.04847387 0.054085005 0.0061777043 -0.0061883056 0.006704819 0.08521117
0.081489846 0.015649065 -0.021449778 0.03282421 -0.08613503 0.0026111514 0.04257153 0.08520594
-0.005962921 -0.05292245 0.04134875 -0.03850651 0.020488972 0.0034473573 -0.056516185 -0.057697166
-0.01514471 0.0353116 0.059640877 -0.052124206 0.03669811 -0.07953924 0.05759968 0.0047695735
-0.07135372 -0.013221616 0.02386638 0.023314998 0.0039012893 0.049168844 0.04570577 0.014460337
00000000: 4e71 abbd 61a4 acbd 889e 2c3c f127 fc3c
00000010: 69f9 74bc 66a8 afbc 0dac 2ebd 4922 32bd
00000020: 943c 88bd f5fa b6bd e420 32bd df52 36bd
00000030: 6a48 28bb b558 f9bc 4595 033c 0e86 0a3d
00000040: e0f6 753d 7e63 b73d 1e14 a23d 3d9a cc3b
00000050: 10d3 953d cdbb f93a 378b 373c bd90 25bc
00000060: e2c2 52bb 1201 bf3c b451 8d3d cde8 90bd
00000070: 4882 17bd 1382 91bd e61a b83d b1df a13c
00000080: e525 a23d 6d0d fbbc c0e8 50bc 241b a73c
00000090: 5dfd c83c ce3b 8cbd 7ab9 fc3c a128 f33c
000000a0: 8778 0f3d 3653 543d 9f82 0dbd c272 1dbd
000000b0: 32b6 78bd ae52 5abc e61e cbbc 8229 a13d
000000c0: ba8f 61bd 2313 78bd 81b3 83bd 8e30 52bd
000000d0: 8955 a53d 5e95 4ebd 584d 3ebd cb03 3a3d
000000e0: 4d52 afbd 38b0 ad3d f63e ef3b acca 41bc
000000f0: 3db7 a0bd 68e7 b5bd 4c78 d7bc ecd0 80bd
00000100: 8cb1 47bd 951e 96bd 1d22 423d af97 82bc
00000110: cebf a4ba 14c4 1dbd ef64 98bd ea60 47bd
00000120: 5954 07bc 51bc a03d 5d40 ce39 24db 813d
00000130: a6e2 0ebd f66b 4dbd 5a58 5a3b ed5d a9bd
00000140: ca66 7cbd 4306 673b 98ba 2f3d 4f8d 963b
00000150: 0520 0a3d 54d0 9bbd a4e8 a3bd e156 8b3d
00000160: 043e b73d d48e 57bd 898c 463d 3d88 5d3d
00000170: 576e ca3b 45c7 cabb 19b4 db3b 3283 ae3d
00000180: 26e4 a63d 7832 803c 72b7 afbc ae72 063d
00000190: 9067 b0bd da1f 2b3b 7c5f 2e3d 7480 ae3d
000001a0: 9b64 c3bb 36c5 58bd 4f5d 293d 01b9 1dbd
000001b0: 7dd8 a73c 0fed 613b 847d 67bd dd53 6cbd
000001c0: 8521 78bc e5a2 103d fe49 743d 3180 55bd
000001d0: c250 163d 78e5 a2bd a4ed 6b3d 154a 9c3b
000001e0: e621 92bd 7a9f 58bc 6d83 c33c 18ff be3c
000001f0: c6ac 7f3b 4565 493d f935 3b3d 0deb 6c3c

rnn.weight_hh_l0 f4 [128, 128]
-0.027149849 0.016339073 -0.0669091 -0.008775095 0.0644334 -0.046614707 0.09021453 -0.053982466
0.059271872 -0.090825506 0.02652971 0.043870494 0.024034124 -0.03813891 -0.045693204 -0.057152633
0.010687282 -0.010578819 0.043532923 0.057818808 -0.06722668 0.027670449 0.035530373 -0.01294855
0.0652145 0.070668876 -0.046654735 -0.079540655 -0.08307992 0.06115428 0.06734479 0.064050786
0.08313243 -0.019492446 0.07428422 -0.0338779 -0.02868622 -0.019520205 -0.08273721 -0.024925753
0.009295254 0.09029709 -0.04306756 0.03440865 -0.023393234 -0.03116375 0.049650777 0.01341367
0.012450845 0.060818557 0.06525036 -0.08013481 -0.022305243 0.06309026 -0.0095707225 -0.05778761
0.0852542 -0.08136378 -0.046282902 0.033670332 -0.027211318 -0.039583538 -0.01118373 -0.06402789
0.055140503 -0.083921336 -0.002992667 -0.033101737 0.043424077 -0.08250804 0.03681238 0.07135581
0.07540478 -0.03285474 -0.07560537 -0.02037231 0.07289561 0.050508883 0.08140682 0.035694547
0.08033914 0.057798114 0.04757075 -0.0055269315 -0.03236328 0.08358424 -0.03243911 -0.054010615
0.007783193 -0.03456731 0.027614666 0.089484 -0.021896796 -0.075570405 0.059477955 0.039500494
-0.033789914 0.07277511 -0.014156182 0.031914532 -0.07919088 -0.0124996435 -0.012782371 -0.034851547
-0.016525393 -0.063751414 0.029445421 0.03421846 0.057028096 0.05605706 -0.08846155 0.0043680905
0.0039088125 -0.07283071 0.03384075 0.0025578155 -0.021171093 0.023990255 -0.0030527287 0.024969025
-0.07993928 -0.0025779568 -0.035719916 -0.0030735168 0.089326724 -0.07248087 -0.079216294 0.07394411
0.03987004 -0.017037697 -0.045786615 -0.00824528 -0.077340096 0.06375629 0.08674988 0.047600012
0.055273253 0.027564242 0.059450574 0.008535944 0.045213517 0.042051945 -0.071091704 0.0054660495
-0.011678868 -0.021408059 -0.057546053 0.0380748 0.07168751 0.04451383 -0.023949914 -0.06640744
0.05964815 -0.009698234 -0.013096829 -0.052593343 -0.030948661 0.011946672 0.01306196 0.0045726476
0.03527777 -0.079668365 0.06903452 0.08223841 -0.016249482 0.04584823 0.06131937 0.033282954
0.033843752 -0.06829924 -0.03174926 0.07986556 0.031914286 -0.0026647071 -0.028368343 0.03434704
0.007347546 0.08046444 -0.06498601 0.029410409 -0.059885908 -0.06766288 0.06147147 0.046902865
0.019865543 0.035565887 -0.02637792 0.039564494 -0.06141923 0.020562647 -0.04665809 0.0696143
-0.042479906 0.08065153 0.08219401 -0.014026921 -0.08272981 -0.0036086887 -0.0071415217 0.038953155
-0.048059933 -0.013159935 -0.045647573 -0.06081305 -0.056923937 -0.044472553 0.0017635984 -0.07707015
-0.03783109 -0.054135 -0.025060363 0.012080604 -0.05255396 0.081964724 0.048273586 -0.0009701663
-0.018769035 0.040789068 -0.046220485 -0.0762525 -0.062469326 0.063684985 0.0042904452 0.047844995
-0.018628014 -0.039699912 -0.012641043 -0.015364668 0.03197197 0.049726903 0.07207563 -0.06244592
0.029836094 -0.01386499 -0.08360662 0.009360819 -0.08331369 0.06926505 -0.029580964 -0.042548336
0.06951627 -0.009001557 -0.017741848 0.024209877 0.05728438 0.010193457 0.03892167 0.023668906
0.036280107 0.02552855 -0.07366671 -0.010590344 -0.04117051 0.0090817595 0.07764663 0.037381392
00000000: 5c69 debc 85d9 853c a307 89bd 6bc5 0fbc
00000010: a9f5 833d 10ef 3ebd 65c2 b83d b81c 5dbd
00000020: 10c7 723d b902 babd d654 d93c 8cb1 333d
00000030: 36e3 c43c 8c37 1cbd cc28 3bbd e118 6abd
00000040: b619 2f3c c852 2dbc 944f 323d 6ad3 6c3d
00000050: 24ae 89bd 23ad e23c 4c88 113d 2826 54bc
00000060: 2e8f 853d d8ba 903d 0919 3fbd 36e6 a2bd
00000070: ce25 aabd e97c 7a3d 11ec 893d 0f2d 833d
00000080: 5641 aa3d 9fae 9fbc 5322 983d 8ec3 0abd
00000090: 5dff eabc d6e8 9fbc 2072 a9bd 1831 ccbc
000000a0: 1f4b 183c aeed b83d 9c67 30bd 16f0 0c3d
000000b0: 2ba3 bfbc 1f4b ffbc 9d5e 4b3d 02c5 5b3c
000000c0: a1fe 4b3c e11c 793d fba1 853d b81d a4bd
000000d0: 7cb9 b6bc 7735 813d 85ce 1cbc b3b2 6cbd
000000e0: c199 ae3d 0ea2 a6bd 2493 3dbd e7e9 093d
000000f0: 45ea debc 5922 22bd f73b 37bc 0e21 83bd
00000100: 02db 613d f3de abbd 9f20 44bb b095 07bd
00000110: 72dd 313d faf9 a8bd 94c8 163d ff22 923d
00000120: d26d 9a3d b192 06bd fdd6 9abd d5e3 a6bc
00000130: 4b4a 953d 67e2 4e3d 9eb8 a63d 7234 123d
00000140: d988 a43d b7bd 6c3d 8cd9 423d 431b b5bb
00000150: 5c8f 04bd 372e ab3d dfde 04bd 3c3a 5dbd
00000160: 280a ff3b 7496 0dbd 2738 e23c 6343 b73d
00000170: e960 b3bc a8c4 9abd 289f 733d 45cb 213d
00000180: 4b67 0abd 1e0b 953d 55ef 67bc d0b8 023d
00000190: d42e a2bd 4ecb 4cbc 266d 51bc 7fc0 0ebd
000001a0: 4360 87bc 1a90 82bd 8637 f13c a828 0c3d
000001b0: 4b96 693d 169c 653d 542b b5bd 3322 8f3b
000001c0: 7f15 803b 4428 95bd 999c 0a3d 06a1 273b
000001d0: 006f adbc 3687 c43c 4a10 48bb d78b cc3c
000001e0: 35b7 a3bd f0f2 28bb 0c4f 12bd 0e6d 49bb
000001f0: eef0 b63d da70 94bd 273c a2bd 0270 973d
00000200: c44e 233d a492 8bbc bf8a 3bbd 3617 07bc
00000210: 7c64 9ebd a892 823d eca9 b13d 3bf8 423d
00000220: 3566 623d 68ce e13c 7282 733d 58da 0b3c
00000230: cf31 393d a93e 2c3d 8798 91bd 8c1c b33b
00000240: b958 3fbc f45f afbc 69b5 6bbd 52f4 1b3d
00000250: e7d0 923d 2254 363d 9c32 c4bc a000 88bd
00000260: 9e51 743d 57e5 1ebc 1594 56bc 1e6c 57bd
00000270: 0c88 fdbc f9bb 433c d501 563c 26d6 953b
00000280: 6c7f 103d 2b29 a3bd f861 8d3d 9d6c a83d
00000290: a21d 85bc 5bcb 3b3d 052a 7b3d b553 083d
000002a0: bf9f 0a3d 79e0 8bbd 830b 02bd 8e90 a33d
000002b0: 8eb8 023d 5ea2 2ebb ba64 e8bc 7baf 0c3d
000002c0: afc3 f03b 8aca a43d 6317 85bd 19ee f03c
000002d0: ed4a 75bd d692 8abd 82c9 7b3d 381d 403d
000002e0: 10bd a23c 89ad 113d 8216 d8bc 610e 223d
000002f0: bb92 7bbd ff72 a83c 8e1c 3fbd f191 8e3d
00000300: 69ff 2dbd a12c a53d 5555 a83d 2cd1 65bc
00000310: 3f6e a9bd c07f 6cbb 6d03 eabb 588d 1f3d
00000320: 7eda 44bd c59c 57bc f3f8 3abd 1b17 79bd
00000330: 1329 69bd da28 36bd 8b28 e73a f4d6 9dbd
00000340: c6f4 1abd a9bc 5dbd 644b cdbc baed 453c
00000350: d242 57bd 1fdd a73d 86ba 453d c252 7eba
00000360: 85c1 99bc 7012 273d b151 3dbd 452a 9cbd
00000370: d6df 7fbd 466d 823d dd96 8c3b 1df9 433d
00000380: c799 98bc 609c 22bd 611c 4fbc 17bc 7bbc
00000390: 0af5 023d 70ae 4b3d 639c 933d 4bc7 7fbd
000003a0: d36a f43c fc29 63bc f339 abbd 1f5e 193c
000003b0: 5ea0 aabd d6da 8d3d c753 f2bc 2a47 2ebd
000003c0: 8c5e 8e3d 447b 13bc 5a57 91bc cb53 c63c
000003d0: 07a3 6a3d 7502 273c 546c 1f3d 4be5 c13c
000003e0: 739a 143d 4021 d13c 92de 96bd 1f83 2dbc
000003f0: 69a2 28bd a9cb 143c 3205 9f3d 3b1d 193d

rnn.bias_ih_l0 f4 [128]
0.0067076706 -0.011180455 0.026417084 -0.068177834 -0.005925086 -0.011053418 0.0005030104 -0.0023345894
0.08109861 -0.04725095 0.0415058 -0.0021149209 -0.026413912 0.08341411 -0.0011204421 -0.017749295
0.073009305 0.022238519 0.0030711854 0.049848672 0.06524949 0.06333944 -0.06660608 -0.021655709
0.06409575 -0.016831411 -0.051061165 0.03413752 -0.017873976 -0.06651447 -0.06300237 0.012384691
-0.053739384 0.02157649 -0.057442307 -0.06243584 -0.035026826 0.022597058 -0.06891654 -0.060586613
0.029075885 0.00089983875 -0.03314196 -0.08448578 -0.014787661 0.06178397 -0.052263156 -0.06540515
-0.06588811 -0.007596214 -0.08443873 -0.02238526 0.04226582 -0.044342708 0.021416772 0.086307146
0.06766923 -0.028829135 -0.03902057 -0.038775675 0.005020681 -0.07951935 0.053555436 -0.015867721
0.07082708 0.07069646 -0.0050028036 0.052506573 0.03085466 0.06770777 -0.069447674 0.08229216
0.039013926 0.0009800467 0.048433732 -0.07573275 -0.051424935 0.03161559 -0.043842327 0.057523824
0.017169751 -0.053668797 0.07126168 0.038238946 0.010779496 0.05872285 0.041537214 -0.079932876
0.009141716 0.06503045 0.02649758 0.042591743 -0.05030944 0.07098276 -0.0019221619 0.03889869
0.08912469 0.038903836 -0.03273592 -0.072266914 -0.07876891 -0.016412664 -0.019930009 -0.07118901
0.0029455752 0.05587419 -0.055192232 0.032915898 -0.076763414 0.05450759 0.041732825 -0.0033171235
0.03774232 -0.04419107 0.034812607 -0.023145584 0.07694588 -0.059581585 0.045094106 0.026813554
0.046844456 0.021237772 0.07346188 -0.058779247 0.07484759 0.016846294 -0.014686009 0.040208183
00000000: 05cc db3b 3a2e 37bc a468 d83c d2a0 8bbd
00000010: 3927 c2bb 6519 35bc 75dc 033a e9ff 18bb
00000020: 0717 a63d 368a 41bd fc01 2a3d 7c9a 0abb
00000030: fd61 d8bc 04d5 aa3d ccdb 92ba f866 91bc
00000040: e785 953d 8e2d b63c f145 493b 1f2e 4c3d
00000050: 86a1 853d 1cb8 813d c568 88bd 5067 b1bc
00000060: a244 833d 07e2 89bc 8325 51bd c9d3 0b3d
00000070: 726c 92bc bd38 88bd 6307 81bd 29e9 4a3c
00000080: d41d 5cbd 2ec1 b03c a048 6bbd b9bc 7fbd
00000090: 4a78 0fbd 771d b93c 1d24 8dbd ab29 78bd
000000a0: 8d30 ee3c 28e3 6b3a ddbf 07bd e106 adbd
000000b0: f247 72bc 3011 7d3d e411 56bd 23f3 85bd
000000c0: 58f0 86bd a9e9 f8bb 36ee acbd 4b61 b7bc
000000d0: ed1e 2d3d b3a0 35bd 3a72 af3c cdc1 b03d
000000e0: 2a96 8a3d 142b ecbc 09d4 1fbd 3ed3 1ebd
000000f0: 8684 a43b 0adb a2bd f25c 5b3d 06fd 81bc
00000100: ca0d 913d 4ec9 903d 8fee a3bb 2211 573d
00000110: e9c2 fc3c 5faa 8a3d 953a 8ebd cb88 a83d
00000120: 11cd 1f3d e974 803a 7362 463d c619 9bbd
00000130: f4a2 52bd 597f 013d 0394 33bd 1a9e 6b3d
00000140: 94a7 8c3c d0d3 5bbd a5f1 913d 71a0 1c3d
00000150: 7c9c 303c 5f87 703d ed22 2a3d d9b3 a3bd
00000160: 23c7 153c af2e 853d 7411 d93c ae74 2e3d
00000170: 4511 4ebd 695f 913d 0df1 fbba 3c54 1f3d
00000180: 0187 b63d a159 1f3d 1a16 06bd ad00 94bd
00000190: 9851 a1bd da73 86bc 4244 a3bc 8bcb 91bd
000001a0: 8d0a 413b 56dc 643d 4011 62bd d2d2 063d
000001b0: 2336 9dbd 5a43 5f3d 0af0 2a3d 1964 59bb
000001c0: b197 1a3d b201 35bd aa97 0e3d cf9b bdbc
000001d0: cd95 9d3d d20b 74bd 99b4 383d 19a8 db3c
000001e0: f9df 3f3d d6fa ad3c 2f73 963d 82c2 70bd
000001f0: b149 993d 3d01 8a3c 969d 70bc 56b1 243d

rnn.bias_hh_l0 f4 [128]
0.037883796 -0.031877592 -0.08139983 0.0051229713 0.08000839 -0.06626337 -0.05533153 -0.01759324
0.078964576 0.025876869 0.029823719 -0.06466195 0.06318268 -0.047383647 0.020806255 -0.012798649
-0.077158615 -0.018550863 0.041689083 -0.069693945 0.019715954 -0.009548331 -0.033766612 -0.06848909
0.027637407 -0.03868142 -0.07392034 0.049692657 -0.016141588 -0.0607224 0.01885945 -0.05959102
0.054730777 0.08061022 -0.07584112 -0.075664885 -0.019184323 -0.034400944 0.092943445 -0.024849273
0.04587411 0.00047449252 0.053679723 0.024299003 -0.037831143 0.0786613 0.04781616 0.0043878504
-0.07028028 0.024860173 -0.04535471 -0.06364202 0.016567297 -0.05805627 0.00631376 -0.084926836
-0.073353976 -0.061089043 0.049432803 -0.03162584 0.038655285 -0.05157684 0.062351312 -0.05324271
0.009732747 0.07555073 0.048208185 -0.07087771 0.01743406 -0.033040557 -0.0057512927 -0.0012621147
0.011127663 0.05101449 -0.007350812 -0.0042319694 0.029315561 0.054224465 -0.08938277 0.08177517
0.0748095 -0.016877664 0.08232884 -0.08041634 -0.0051880646 0.047076948 0.012194044 0.07518645
0.08758862 -0.010266403 0.04553553 -0.065133676 0.06776535 0.013245105 0.076894015 0.00524399
0.030900711 -0.045855757 -0.04802668 0.014687893 0.020796116 0.08198654 0.05365566 0.03926233
-0.072188035 -0.04505925 0.07134638 0.051054075 -0.0379663 -0.032567695 0.07612753 -0.05474863
0.07357159 0.03047751 0.03805253 -0.017785715 0.050687924 -0.058022793 -0.073029034 -0.034420762
-0.038386468 -0.04457609 -0.021723352 0.029529145 -0.01626983 0.00078750483 -0.038457137 0.05673819
00000000: 0a2c 1b3d 1492 02bd f4b4 a6bd 99de a73b
00000010: 70db a33d 17b5 87bd 50a3 62bd b31f 90bc
00000020: 2eb8 a13d bafb d33c df50 f43c 7c6d 84bd
00000030: ec65 813d 5b15 42bd e171 aa3c 6db1 51bc
00000040: 5605 9ebd fbf7 97bc 2cc2 2a3d b3bb 8ebd
00000050: 5a83 a13c 9a70 1cbc dc4e 0abd 0244 8cbd
00000060: d867 e23c 6970 1ebd 8c63 97bd 878a 4b3d
00000070: 5d3b 84bc 0db8 78bd 227f 9a3c b715 74bd
00000080: 612d 603d f916 a53d 9752 9bbd 31f6 9abd
00000090: 7128 9dbc 01e8 0cbd 2259 be3d b490 cbbc
000000a0: 7ee6 3b3d 4fc5 f839 45df 5b3d b40e c73c
000000b0: d4f4 1abd 2d19 a13d e1da 433d f5c7 8f3b
000000c0: 1cef 8fbd 90a7 cb3c dcc5 39bd bf56 82bd
000000d0: 24b8 873c 69cc 6dbd a8e3 ce3b 1fee adbd
000000e0: 9c3a 96bd 8138 7abd 0d7a 4a3d 198a 01bd
000000f0: 0155 1e3d 3d42 53bd 1764 7f3d 0715 5abd
00000100: 1a76 1f3c 57ba 9a3d f275 453d 5528 91bd
00000110: e0d1 8e3c 8955 07bd 5775 bcbb 8b6d a5ba
00000120: cd50 363c 92f4 503d 15df f0bb 55ac 8abb
00000130: 3027 f03c 791a 5e3d 500e b7bd be79 a73d
00000140: b935 993d 0743 8abc 069c a83d 52b1 a4bd
00000150: a400 aabb c2d3 403d 87c9 473c 5afb 993d
00000160: aa61 b33d 6a34 28bc 7783 3a3d ce64 85bd
00000170: 8fc8 8a3d ff01 593c 9c7a 9d3d c7d5 ab3b
00000180: 7d23 fd3c 3fd3 3bbd a0b7 44bd 7da5 703c
00000190: 9e5c aa3c 8fe8 a73d 0ac6 5b3d 89d1 203d
000001a0: 52d7 93bd 0c90 38bd 0d1e 923d 141e 513d
000001b0: 8d82 1bbd b465 05bd c0e8 9b3d 1940 60bd
000001c0: b4ac 963d f9ab f93c f8dc 1b3d 59b3 91bc
000001d0: 249e 4f3d 4fa9 6dbd 3f90 95bd c9fc 0cbd
000001e0: 213b 1dbd 6b95 36bd 2cf5 b1bc 1be7 f13c
000001f0: 4e48 85bc 8e70 4e3a 3b85 1dbd 4e66 683d

rnn.weight_ih_l1 f4 [128, 128]
-0.05417665 0.044025436 0.042789053 0.09080357 -0.022262845 0.04824402 0.05413198 0.07509609
0.00063150894 0.05915179 0.059158754 -0.0037080075 -0.0578527 -0.021607216 -0.062021706 0.0055342647
0.008025587 0.04667871 -0.06222418 0.045055058 0.016262373 -0.01032374 -0.07647776 0.06685558
-0.0020570434 0.03691903 -0.03266872 0.015132378 0.036167424 -0.08887688 0.074573986 -0.018728856
0.047683064 0.077144496 -0.057730556 -0.070062675 -0.035457056 -0.064609386 -0.05163998 0.07802586
0.08858534 -0.024350515 0.023018971 0.0698763 0.03965818 -0.06274922 0.02507649 0.0754128
-0.029323034 0.06932465 -0.034464285 -0.016096218 0.07686391 0.063663796 -0.028512755 -0.0834285
-0.0381539 0.020285448 0.078319706 -0.060290243 0.036592476 0.062394794 -0.074802816 0.052823815
0.079651944 0.016428698 0.045277994 0.08016581 0.0692809 -0.027413366 0.038776595 0.021588359
-0.039235666 0.046195876 -0.02893864 0.03806034 0.073892176 -0.082004264 0.051550798 -0.009643979
0.08010278 -0.025786739 0.0333555 0.0050430824 0.07373612 -0.029876687 0.0028551472 0.0040649087
-0.018206604 -0.021887738 -0.05748997 0.018249495 0.006510692 0.09031802 -0.028818063 0.053465374
0.015206335 -0.0014764604 0.05171444 0.07976116 -0.062065978 0.049535576 -0.028758194 -0.015618053
-0.04722396 -0.07138779 -0.002583582 -0.05077361 0.040763434 -0.07507928 0.02173252 0.05413153
0.04517696 0.014526899 0.0032130997 0.073515706 -0.060125943 -0.08345913 -0.044001162 0.00014116417
0.01733668 0.045084722 -0.0098491255 -0.0018175126 0.06105749 0.08239933 -0.0178931 0.0374093
0.07633796 0.02046378 -0.026238114 0.01932965 0.033730138 0.031592637 -0.04563773 0.01035845
-0.06517846 0.059657827 0.08118848 0.06488299 -0.024603441 0.015220014 -0.031259768 -0.008814601
-0.072498254 -0.036910836 0.06637785 -0.037221156 -0.055385213 0.08921006 -0.034902304 -0.053698163
0.024447262 -0.086537085 -0.06267923 -0.03857017 0.0090648 -0.02179969 0.0007763952 -0.04071649
-0.048866462 -0.05978864 0.05043348 0.059892923 -0.051929645 -0.013249508 -0.054995388 0.052258704
-0.03922035 0.020870466 -0.0006794099 -0.002555469 0.043238692 -0.08747628 0.0018685979 -0.024732722
-0.043383263 0.008600441 0.02682608 0.06261149 0.05683073 0.038258333 -0.0605461 -0.00055159477
-0.056967832 0.034514014 0.013139229 0.078583084 -0.06262746 -0.034414794 0.08545903 0.065946415
-0.06856344 0.06900295 0.06732763 -0.057584956 0.059021767 0.03370596 0.03608141 0.008086396
-0.01073404 0.033014446 -0.09050074 -0.03509942 -0.02536958 0.028796803 -0.085513346 0.07842385
-0.0054755625 -0.08928897 -0.03576428 0.054644484 -0.08188463 0.033005863 -0.069548935 0.045990672
-0.009896032 -0.0028598532 -0.07857329 0.06815774 0.078827344 -0.017332414 0.011680343 0.015511632
-0.021499665 -0.037255574 0.06458205 0.041304227 0.019252146 0.015476665 0.05005843 -0.06486851
-0.07250393 -0.022895468 0.07721121 0.005322436 -0.02219763 -0.06949129 0.014618861 -0.0024997722
0.017490644 0.083481684 0.017983787 0.01351232 -0.07447837 0.029005298 0.06493516 0.044890206
-0.045450732 -0.082222104 0.038763836 -0.08112399 -0.05627022 0.053666018 0.027547693 0.065313175
00000000: 56e8 5dbd 0454 343d 9343 2f3d 39f7 b93d
00000010: 9260 b6bc 869b 453d 7fb9 5d3d fbcb 993d
00000020: d98b 253a 2649 723d 7350 723d 0b02 73bb
00000030: f4f6 6cbd 9e01 b1bc 790a 7ebd c758 b53b
00000040: c07d 033c 2d32 3f3d c8de 7ebd a78b 383d
00000050: ab38 853c e724 29bc 5fa0 9cbd 94eb 883d
00000060: 76cf 06bb 6938 173d a3cf 05bd cbed 773c
00000070: 4b24 143d 1505 b6bd 3fba 983d 426d 99bc
00000080: 514f 433d effd 9d3d e076 6cbd 057d 8fbd
00000090: 6b3b 11bd ed51 84bd 7284 53bd 06cc 9f3d
000000a0: 3b6c b53d bb7a c7bc 4892 bc3c 4e1b 8f3d
000000b0: 9e70 223d aa82 80bd 366d cd3c 0772 9a3d
000000c0: dc36 f0bc 15fa 8d3d 6c2a 0dbd 37dc 83bc
000000d0: d36a 9d3d 2a62 823d 9593 e9bc 90dc aabd
000000e0: 4447 1cbd ab2d a63c 1566 a03d e7f2 76bd
000000f0: fee1 153d af91 7f3d 3832 99bd c95d 583d
00000100: 8f20 a33d 7a95 863c 6b75 393d f92d a43d
00000110: 25e3 8d3d ff91 e0bc 35d4 1e3d 12da b03c
00000120: 94b5 20bd e337 3d3d ba10 edbc 29e5 1b3d
00000130: c854 973d daf1 a7bd ee26 533d c801 1ebc
00000140: ed0c a43d b63e d3bc c79f 083d 7140 a53b
00000150: f602 973d f4bf f4bc 6c1d 3b3b ed32 853b
00000160: 0426 95bc ea4d b3bc 9a7a 6bbd f77f 953c
00000170: a557 d53b a7f8 b83d dc13 ecbc 82fe 5a3d
00000180: fe23 793c ca85 c1ba 85d2 533d d259 a33d
00000190: e538 7ebd d1e5 4a3d 4e96 ebbc dde2 7fbc
000001a0: e96d 41bd c333 92bd 5051 29bb fdf7 4fbd
000001b0: 8ff7 263d 2ac3 99bd 6608 b23c 06b9 5d3d
000001c0: 7a0b 393d 3b02 6e3c de92 523b 678f 963d
000001d0: 9f46 76bd 9fec aabd 903a 34bd 7805 1439
000001e0: a705 8e3c c2aa 383d 3a5e 21bc 9a39 eeba
000001f0: 6b17 7a3d fbc0 a83d 8d94 92bc 7f3a 193d
00000200: 1457 9c3d a8a3 a73c 50f1 d6bc 3759 9e3c
00000210: 9d28 0a3d 4867 013d a1ee 3abd 7db6 293c
00000220: 497c 85bd c45b 743d 2546 a63d 60e1 843d
00000230: 288d c9bc 5e5d 793c 3e0a 00bd 1e6b 10bc
00000240: f779 94bd d12f 17bd 1cf1 873d 3675 18bd
00000250: 9bdb 62bd c4b3 b63d b8f5 0ebd 9bf2 5bbd
00000260: a045 c83c 5b3a b1bd f85d 80bd c1fb 1dbd
00000270: 8784 143c 4395 b2bc 0087 4b3a 56c6 26bd
00000280: 3328 48bd efe4 74bd 5693 4e3d 4852 753d
00000290: 2eb4 54bd 7714 59bc d842 61bd 390d 563d
000002a0: 85a5 20bd 8af8 aa3c 6d1a 32ba a879 27bb
000002b0: 0e1b 313d c426 b3bd beeb f43a 479c cabc
000002c0: a6b2 31bd dde8 0c3c 5ec2 db3c 743a 803d
000002d0: 57c7 683d c5b4 1c3d 30ff 77bd e698 10ba
000002e0: 1a57 69bd 915e 0d3d ec45 573c 2bf0 a03d
000002f0: d342 80bd 87f6 0cbd 2505 af3d ea0e 873d
00000300: fd6a 8cbd 6b51 8d3d 12e3 893d 34de 6bbd
00000310: cfc0 713d 430f 0a3d 1aca 133d ce7c 043c
00000320: d4dd 2fbc 283a 073d 7458 b9bd 69c4 0fbd
00000330: ded3 cfbc 46e7 eb3c 9f21 afbd af9c a03d
00000340: 596c b3bb 23dd b6bd 917d 12bd e5d2 5f3d
00000350: 21b3 a7bd 2831 073d ac6f 8ebd b760 3c3d
00000360: f722 22bc 606c 3bbb 08eb a0bd 4996 8b3d
00000370: 3b70 a13d b5fc 8dbc e95e 3f3c 8024 7e3c
00000380: 1120 b0bc 4d99 18bd 9843 843d 9f2e 293d
00000390: adb6 9d3c d791 7d3c 110a 4d3d c8d9 84bd
000003a0: f17c 94bd 478f bbbc e920 9e3d d467 ae3b
000003b0: ced7 b5bc 7351 8ebd f283 6f3c 38d3 23bb
000003c0: 8a48 8f3c 72f8 aa3d bc52 933c c762 5d3c
000003d0: 1e88 98bd 859c ed3c bafc 843d cbde 373d
000003e0: 8c2a 3abd 1064 a8bd d4c6 1e3d 5624 a6bd
000003f0: 9a7b 66bd e6d0 5b3d b3ab e13c eac2 853d

rnn.weight_hh_l1 f4 [128, 128]
0.018021757 0.0728039 0.05802183 0.081477374 0.079044245 0.040070876 -0.022139069 0.06241462
-0.055587653 0.028136712 0.032082386 -0.02672773 0.0012368889 -0.0466421 -0.030417813 0.077149205
0.012664876 0.08436189 0.064064555 -0.029853512 0.039546218 -0.0852213 0.07299206 0.058450304
0.07743986 -0.05077736 -6.5591346e-05 0.01454971 0.051048785 -0.024863401 -0.06915435 -0.07058144
-0.06330097 -0.08376229 -0.06706762 -0.020624273 -0.018486308 -0.057566173 -0.09009345 0.022380304
0.054156806 0.045311846 -0.079313785 0.013477627 0.048822794 -0.0526995 -0.053395793 0.06571578
0.012423636 0.07355919 0.021238625 0.06748197 -0.015014613 0.06962187 0.0156217385 0.001324162
0.08399454 -0.013821745 -0.0030984574 0.055015415 0.040658016 0.014041572 0.08457189 -0.058381576
-0.02567215 -0.077936366 -0.007976773 0.0057298862 0.05158437 0.053148296 -0.046300367 -0.05740295
-0.016854612 0.06361565 0.08718142 0.07239854 0.023611713 0.053039372 -0.017091203 -0.00990894
-0.06868319 -0.046630576 0.03315828 0.014605775 0.06192027 0.023785401 -0.06895085 0.08169617
0.01431933 0.018095702 -0.032603197 0.08943799 0.073085666 0.039919484 -0.063362576 0.044071063
-0.0494996 0.077917226 -0.022100857 -0.05766253 0.040787768 -0.0030346331 0.030865582 -0.032142334
0.040645756 0.036000747 0.023174178 0.03927473 0.07507715 0.09089595 0.046438806 -0.0584992
-0.005503084 -0.06936695 0.0782659 -0.029098792 0.0176772 0.0009258066 0.033963248 -0.08226025
0.044249758 -0.07746543 -0.06757163 -0.029143866 -0.07536255 -0.012455612 -0.037946828 -0.03676983
0.05042525 -0.031729497 -0.040833887 -0.009694827 0.06987988 -0.027654147 0.07897187 0.05421355
0.0611236 0.023686552 -0.008254135 0.034057852 -0.013196553 0.047649592 0.054963496 -0.04979988
0.03712399 0.077566974 -0.05977829 -0.076157674 0.020000536 -0.027701167 -0.080436625 -0.049416274
-0.019954486 -0.07091255 -0.047366496 -0.05859561 0.05429996 -0.070484854 0.08703289 -0.04824269
0.08801144 0.03195256 0.06743533 0.055341568 0.02523188 0.035642788 0.02349682 0.03782356
0.07856462 -0.03136124 0.08707078 0.00749315 0.08307559 0.07379525 0.008084053 0.041666213
0.024129633 -0.075647555 0.0066282614 -0.08146096 0.03969256 -0.021122612 -0.03944798 -0.01763632
0.073532425 0.007585589 -0.08282917 0.08408655 0.058338992 -0.080135934 -0.018615056 0.026131045
-0.008845908 -0.057062827 0.06899115 -0.051155817 0.05561279 0.04462417 -0.017941687 -0.029833084
-0.09065836 0.038398553 -0.05203376 0.028816016 0.076473475 -0.045299813 -0.058932133 0.08430703
0.08289399 0.0010497556 0.0010867022 0.06297124 0.0671085 -0.059907533 -0.057958003 0.03430392
0.08109996 -0.08330907 0.00667686 0.029116508 -0.07622893 0.045457583 0.0092860535 0.02790963
0.007910915 -0.06654111 -0.06671338 -0.07513704 -0.017949391 -0.029566528 0.04918731 0.080369785
0.08170889 -0.036138963 0.07954793 0.052060585 -0.05480666 -0.0072062053 0.026702408 0.06659211
-0.054582253 -0.042295586 0.0052521485 0.020306159 -0.0052284943 -0.013134678 0.03756867 -0.04782763
0.06050539 -0.08136733 -0.05222905 -0.0738478 0.0047819624 -0.00036487015 0.04343867 0.026863093
00000000: 5da2 933c 361a 953d 4ca8 6d3d 9cdd a63d
00000010: f3e1 a13d 5c21 243d fe5c b5bc 79a6 7f3d
00000020: e1af 63bd f67e e63c d268 033d 1df4 dabc
00000030: 1b1f a23a c90b 3fbd c72e f9bc 6700 9e3d
00000040: 5780 4f3c edc5 ac3d 4734 833d 5a8f f4bc
00000050: 37fb 213d 8188 aebd dc7c 953d 9669 6f3d
00000060: ca98 9e3d ecfb 4fbd 168e 89b8 e861 6e3c
00000070: 8818 513d 55ae cbbc cca0 8dbd 018d 90bd
00000080: f0a3 81bd 908b abbd c05a 89bd 3cf4 a8bc
00000090: 9970 97bc 82ca 6bbd ea82 b8bd e656 b73c
000000a0: 87d3 5d3d ea98 393d 446f a2bd 44d1 5c3c
000000b0: 69fa 473d 6edb 57bd 8cb5 5abd ff95 863d
000000c0: 828c 4b3c 33a6 963d a0fc ad3c fd33 8a3d
000000d0: daff 75bc e995 8e3d 52f2 7f3c 818f ad3a
000000e0: 5405 ac3d 9a74 62bc 7d0f 4bbb d857 613d
000000f0: 0589 263d 9f0e 663c 0734 ad3d 8521 6fbd
00000100: 674e d2bc 1a9d 9fbd 03b1 02bc c5c1 bb3b
00000110: 224a 533d 07b2 593d 74a5 3dbd 5b1f 6bbd
00000120: af12 8abc ec48 823d 2c8c b23d b045 943d
00000130: 5a6d c13c d03f 593d da02 8cbc 1b59 22bc
00000140: c6a9 8cbd b4ff 3ebd fad0 073d 0f4d 6f3c
00000150: 1ca0 7d3d 9ad9 c23c 1a36 8dbd 5250 a73d
00000160: a09b 6a3c 703d 943c ee8a 05bd 442b b73d
00000170: f0ad 953d 9d82 233d 3dc4 81bd dc83 343d
00000180: 18c0 4abd 1193 9f3d db0c b5bc 8c2f 6cbd
00000190: 1311 273d b2e0 46bb d1d9 fc3c aea7 03bd
000001a0: 2a7c 263d 8575 133d c6d7 bd3c 8ade 203d
000001b0: 0cc2 993d a827 ba3d 9e36 3e3d db9c 6fbd
000001c0: 3753 b4bb 4210 8ebd df49 a03d 9760 eebc
000001d0: c6cf 903c d4b1 723a 0c1d 0b3d 1078 a8bd
000001e0: 3c3f 353d 32a6 9ebd ff62 8abd 1ebf eebc
000001f0: ae57 9abd a012 4cbc 226e 1bbd f69b 16bd
00000200: b58a 4e3d caf6 01bd 6f41 27bd 0dd7 1ebc
00000210: 2f1d 8f3d f38a e2bc 01bc a13d 070f 5e3d
00000220: bd5c 7a3d 4d0a c23c 5a3c 07bc 3f80 0b3d
00000230: 5b36 58bc 382c 433d 6721 613d f5fa 4bbd
00000240: 530f 183d 6fdb 9e3d 15da 74bd 8ef8 9bbd
00000250: 2ad8 a33c 8fed e2bc f5bb a4bd b868 4abd
00000260: 9777 a3bc 993a 91bd 5f03 42bd f301 70bd
00000270: a369 5e3d 5d5a 90bd 4d3e b23d 209a 45bd
00000280: 583f b43d b0e0 023d 891b 8a3d d7ad 623d
00000290: 16b3 ce3c 2cfe 113d 677c c03c e1ec 1a3d
000002a0: 7de6 a03d a574 00bd 2a52 b23d 1989 f53b
000002b0: 8923 aa3d f721 973d fa72 043c 31aa 2a3d
000002c0: 82ab c53c 1bed 9abd e331 d93b 01d5 a6bd
000002d0: aa94 223d 5409 adbc 3494 21bd 0b7a 90bc
000002e0: 2b98 963d 8890 f83b 57a2 a9bd 9235 ac3d
000002f0: def4 6e3d 4f1e a4bd 9a7e 98bc c610 d63c
00000300: 6dee 10bc b6ba 69bd 3b4b 8d3d c388 51bd
00000310: 3dca 633d d5c7 363d 72fa 92bc 8364 f4bc
00000320: 17ab b9bd cd47 1d3d 5a21 55bd 910f ec3c
00000330: 209e 9c3d 4c8c 39bd d262 71bd 2aa9 ac3d
00000340: 53c4 a93d f497 893a ad6f 8e3a 11f7 803d
00000350: 2e70 893d 9a61 75bd 5f65 6dbd 4482 0c3d
00000360: bc17 a63d f29d aabd 90c9 da3b be85 ee3c
00000370: ea1d 9cbd bb31 3a3d 8824 183c bda2 e43c
00000380: c89c 013c b546 88bd 06a1 88bd 73e1 99bd
00000390: 9a0a 93bc 8135 f2bc a278 493d ea98 a43d
000003a0: fe56 a73d 7306 14bd 06ea a23d 7b3d 553d
000003b0: f37c 60bd 0822 ecbb 02bf da3c 7261 883d
000003c0: a491 5fbd 233e 2dbd 371a ac3b 1a59 a63c
000003d0: ca53 abbb d532 57bc 9be1 193d e8e6 43bd
000003e0: 80d4 773d eaa3 a6bd 21ee 55bd 843d 97bd
000003f0: 02b2 9c3b 0b4c bfb9 bfec 313d fd0f dc3c

rnn.bias_ih_l1 f4 [128]
-0.01675912 0.033195056 -0.010756886 -0.07175086 0.05399435 0.018062923 -0.025414204 0.05383712
-0.03560266 -0.057952166 0.042233992 -0.019311635 -0.025018752 0.08576541 -0.024914116 -0.072372675
0.035474543 0.06685051 -0.061667472 0.008831614 -0.012021886 -0.076618075 -0.045128778 -0.06740953
0.016973192 0.067702025 0.031301387 -0.0031234669 -0.018032962 0.07112309 0.046577714 -0.011742817
0.042919587 0.062700614 0.006143847 0.06271026 0.044418644 -0.06441519 0.014082506 -0.047823586
-0.08271512 -0.031569548 0.07505029 -0.073199905 -0.072419204 -0.06242571 -0.016984653 0.007905569
0.0047902106 -0.07805168 0.089671746 -0.06826759 0.058912456 0.07965727 -0.08655499 0.033846866
-0.08948518 0.0007485055 -0.0004388411 -0.037753396 -0.024821056 0.06535658 0.023356747 -0.06276014
-0.04977576 -0.011968662 -0.004805301 -0.06842532 -0.0855545 0.044589784 0.056820538 -0.01658199
-0.048956085 0.025439296 0.049063984 0.04646525 -0.025416393 0.008309851 -0.0397018 -0.0027675754
0.017273339 -0.00015418344 0.024693917 0.08543714 0.055113956 0.019863231 -0.064366065 -0.041774012
-0.061089296 -0.043461103 0.0025110964 0.072330736 0.00222317 -0.015437423 -0.06698567 0.041138787
-0.049039524 0.0831336 -0.06431217 -0.056745622 0.053150088 -0.043708473 0.081252344 -0.035683252
0.087814696 0.06025009 0.074775875 0.02722263 -0.033181265 0.053156905 0.0385417 -0.039320473
-0.007544562 -0.0069207563 0.061818168 -0.031780537 0.071921915 -0.07676641 0.05754438 0.0838272
-0.056911424 0.0057591796 -0.013617767 -0.030979348 0.05943849 -0.031736698 0.08079982 -0.055716805
00000000: 6c4a 89bc 8af7 073d a63d 30bc 1df2 92bd
00000010: 2e29 5d3d b2f8 933c 7331 d0bc 5084 5c3d
00000020: 18d4 11bd 405f 6dbd 8dfd 2c3d 6f33 9ebc
00000030: 20f4 ccbc c6a5 af3d b018 ccbc 2038 94bd
00000040: c14d 113d ece8 883d 0897 7cbd 79b2 103c
00000050: 72f7 44bc f0e9 9cbd f4d8 38bd 020e 8abd
00000060: 5d0b 8b3c 5ca7 8a3d e235 003d 14b3 4cbb
00000070: ddb9 93bc fca8 913d 46c8 3e3d f264 40bc
00000080: 73cc 2f3d 2e69 803d 5352 c93b 3d6e 803d
00000090: 53f0 353d 1cec 83bd 50ba 663c aae2 43bd
000000a0: 8b66 a9bd 124f 01bd f7b3 993d d5e9 95bd
000000b0: 8550 94bd 1ab2 7fbd 6623 8bbc 5c86 013c
000000c0: 33f7 9c3b 8fd9 9fbd d2a5 b73d e1cf 8bbd
000000d0: 304e 713d 5a23 a33d be43 b1bd 03a3 0a3d
000000e0: 0244 b7bd 5b37 443a 4114 e6b9 4ea3 1abd
000000f0: 8755 cbbc acd9 853d a656 bf3c 6388 80bd
00000100: abe1 4bbd 3518 44bc c975 9dbb 9322 8cbd
00000110: 3337 afbd c7a3 363d a7bc 683d f4d6 87bc
00000120: 2d86 48bd 1266 d03c 51f7 483d 5952 3e3d
00000130: 0a36 d0bc 0b26 083c 5b9e 22bd 3660 35bb
00000140: d180 8d3c 4dac 21b9 e64a ca3c abf9 ae3d
00000150: 2cbf 613d 37b8 a23c 5bd2 83bd 3a1b 2bbd
00000160: c538 7abd 4504 32bd 3591 243b 2322 943d
00000170: 9ab2 113b 3fed 7cbc c82f 89bd 2581 283d
00000180: abdd 48bd f341 aa3d 19b6 83bd 196e 68bd
00000190: e8b3 593d a807 33bd a167 a63d 9a28 12bd
000001a0: 31d8 b33d ccc8 763d 1824 993d fe01 df3c
000001b0: 14e9 07bd 0ebb 593d e7dd 1d3d 810e 21bd
000001c0: 6038 f7bb 83c7 e2bb 0c35 7d3d 4f2c 02bd
000001d0: cc4b 933d b537 9dbd a8b3 6b3d 98ad ab3d
000001e0: f41b 69bd 80b7 bc3b 0e1d 5fbc 67c8 fdbc
000001f0: c675 733d 57fe 01bd 607a a53d 4e37 64bd

rnn.bias_hh_l1 f4 [128]
0.08729921 0.08764304 -0.06781311 0.027276142 0.045483615 -0.017656423 -0.05484712 -0.018049799
-0.022803016 -0.08058465 -0.07206717 -0.0752962 -0.054302327 0.021946225 0.032189023 -0.03352896
-0.06127685 0.034723584 -0.076918006 -0.076492436 0.07464905 0.0021116403 -0.0003526478 -0.08701711
0.033421867 0.010057357 0.0050114095 -0.027058978 -0.03627617 -0.05833837 -0.07128781 0.002391755
-0.06891211 -0.011159479 -0.047943965 -0.085035846 0.08103253 -0.011162082 0.053537864 0.085370846
-0.035301495 0.040389664 -0.043722756 0.012560411 -0.044570927 -0.060090773 0.053594753 -0.086679325
-0.02864994 -0.05753765 -0.0059367428 0.03181002 0.058872513 -0.043153036 -0.048801083 0.012943379
0.0099588325 -0.06853387 -0.07769074 0.028522251 0.07946168 0.04197209 -0.020895043 -0.026705805
0.07846111 0.050306603 -0.024869448 0.03635129 0.048082553 -0.04341949 -0.06644571 0.030050853
-0.0719735 -0.040527668 0.033255182 -0.0769754 0.0364199 0.038289018 0.0566188 0.08667263
0.003989554 -0.018039823 -0.043277692 0.06206688 0.036640402 0.07057299 -0.06217403 0.081963666
-0.059981644 -0.03563474 -0.07819341 -0.033836327 -0.033075407 0.026655111 0.0040321522 0.0451818
-0.043284226 -0.04496085 -0.003372132 -0.0038889996 0.052797716 -0.036032785 0.07999256 -0.055233404
0.0061349976 0.0078607565 0.0820009 -0.011442673 -0.015629934 -0.076602995 0.013252454 -0.050388224
0.030931888 -0.01934551 -0.027680226 0.05593408 -0.034128636 0.048191078 0.013550427 0.03233909
-0.08868839 0.0226514 0.059122223 -0.022714317 0.048697304 -0.04675684 0.07457661 -0.001661594
00000000: eec9 b23d 327e b33d 9ae1 8abd 3772 df3c
00000010: 074d 3a3d 34a4 90bc 60a7 60bd 2cdd 93bc
00000020: 64cd babc 9109 a5bd f497 93bd e534 9abd
00000030: 1e6c 5ebd 92c8 b33c a3d8 033d aa55 09bd
00000040: 6ffd 7abd 513a 0e3d 3087 9dbd 11a8 9cbd
00000050: 9ae1 983d 7263 0a3b 96e3 b8b9 0736 b2bd
00000060: 5ee5 083d 9dc7 243c c036 a43b caaa ddbc
00000070: 5296 14bd 37f4 6ebd 58ff 91bd febe 1c3b
00000080: cb21 8dbd 3fd6 36bc e460 44bd 4627 aebd
00000090: 62f4 a53d 2ae1 36bc 854a 5b3d e9d6 ae3d
000000a0: 4d98 10bd a26f 253d a216 33bd 2fca 4d3c
000000b0: 0190 36bd be21 76bd 2c86 5b3d ee84 b1bd
000000c0: 47b3 eabc 99ac 6bbd 0289 c2bb 394b 023d
000000d0: 4e24 713d 3dc1 30bd a5e3 47bd 7710 543c
000000e0: 5f2a 233c 7c5b 8cbd 531c 9fbd 7fa7 e93c
000000f0: cebc a23d edea 2b3d 152c abbc 22c6 dabc
00000100: 38b0 a03d 4c0e 4e3d 03bb cbbc 17e5 143d
00000110: 36f2 443d a3d8 31bd b014 88bd 352d f63c
00000120: d866 93bd 5700 26bd 9636 083d 47a5 9dbd
00000130: 082d 153d f2d4 1c3d 1de9 673d 6b81 b13d
00000140: ceba 823b 40c8 93bc f343 31bd d739 7e3d
00000150: 3f14 163d 9288 903d 32aa 7ebd 91dc a73d
00000160: 50af 75bd bcf5 11bd de23 a0bd f697 0abd
00000170: 147a 07bd d25b da3c 2520 843b 8d10 393d
00000180: cd4a 31bd de28 38bd fdfe 5cbb 96de 7ebb
00000190: 6b42 583d 1d97 13bd 24d3 a33d 6c3c 62bd
000001a0: 1708 c93b 67ca 003c 16f0 a73d 0d7a 3bbc
000001b0: 590a 80bc 08e2 9cbd d220 593c e263 4ebd
000001c0: df64 fd3c 7a7a 9ebc a4c1 e2bc 221b 653d
000001d0: 78ca 0bbd 0264 453d 9c02 5e3c fe75 043d
000001e0: 42a2 b5bd 6e8f b93c 252a 723d 6013 babc
000001f0: d376 473d 1a84 3fbd 9fbb 983d d8c9 d9ba

rnn.weight_ih_l2 f4 [128, 128]
0.042327646 0.013005541 0.087830566 -0.05231359 0.00526165 0.05934178 -0.040180165 0.015929218
0.046018843 -0.008548888 0.05323155 -0.032351747 -0.03657373 0.017083295 -0.028560553 0.039175563
0.072140016 0.041719645 -0.0071689286 0.027915346 -0.04929374 -0.0041791527 0.051541734 -0.018506438
0.03089782 -0.07531888 -0.062084526 -0.08711052 0.0585377 0.026981633 0.04719439 -0.08866432
-0.011212005 -0.067924246 -0.0030414443 0.053021166 -0.07694167 0.08732602 0.08469976 0.063965976
-0.05729138 0.014061245 0.08886665 -0.03806143 -0.06643597 -0.06737653 0.06303352 -0.009186497
0.07662815 0.016762678 0.07878966 -0.029305434 -0.030527247 -0.009201372 -0.056002244 0.003098802
-0.06540842 0.0638489 -0.056395013 -0.011328782 -0.024509357 -0.072915696 0.005892451 -0.03942923
-0.0062676826 -0.040387418 0.030872602 -0.010536909 0.057678785 -0.057626277 0.04779606 0.061738607
0.00871296 -0.013613529 -0.024646625 -0.029564012 0.024983684 0.08455795 0.033165395 0.0802726
-0.013993715 -0.043262042 0.07567112 -0.04133341 -0.010971873 0.032377705 0.03758121 0.0799862
0.07135122 -0.06529626 -0.057484623 0.053557355 -0.008280681 -0.06513041 0.018735144 0.01720414
0.043131605 0.07783002 0.03693449 -0.010592616 -0.06977008 0.01656797 -0.06550612 -0.079878196
0.0426176 -0.046269678 0.03301146 -0.044480946 0.07107961 -0.05110045 0.036464434 0.01369595
0.051707525 0.007945709 0.024902053 0.017821822 -0.079622135 0.0062998603 -0.044525526 -0.07226156
0.011034084 0.062811464 -0.063297085 0.059561793 -0.059128687 0.025110867 -0.07082784 0.004934439
0.0350462 -0.017425407 0.08220092 -0.035003915 -0.061430123 0.00047398327 0.044589307 -0.061254706
0.047174163 -0.07492196 0.07828322 -0.02938023 -0.06466055 -0.035003405 -0.049812127 0.06817143
0.07095991 0.0030739314 -0.0075297393 -0.089702435 -0.0807763 -0.011844115 -0.025663517 0.013314746
0.03946433 0.08440065 -0.067131154 -0.004423506 -0.06320871 0.011535137 -0.002166101 -0.090601295
0.07086963 0.0017592157 -0.02517395 0.045169055 -0.019160664 -0.018486518 -0.0069958596 -0.02050571
0.035760686 -0.07879783 -0.07976889 0.08061899 -0.08803009 0.055171188 0.07390123 -0.0616601
-0.02553265 0.06459647 -0.06509734 -0.078386195 -0.06432773 0.062116507 0.010511221 -0.016222393
-0.02894619 -0.0070695207 0.054264035 -0.054882355 -0.05614718 0.0040895115 0.05839655 -0.054661788
0.06742987 -0.046243288 0.030057462 -0.016032584 0.00706293 0.020664139 0.031682845 0.07434136
-0.0647568 0.041743644 -0.023517977 -0.08292425 -0.053126235 -0.020129558 0.09175509 -0.07840857
0.06995347 -0.03192653 0.07729593 -0.06873632 -0.04146291 0.07831891 0.060127195 -0.014910105
-0.03547829 0.0030943407 -0.07914409 -0.08162294 0.07633515 -0.007560616 -0.0917132 -0.025263729
0.03125046 0.06359633 0.07677392 0.060805824 -0.03991117 -0.002845499 0.034363985 0.003808308
-0.064837925 -0.065970525 0.073868245 0.07317811 0.01312101 -0.034599297 -0.025513526 0.008933016
0.015245771 -0.026074773 -0.06955155 0.06679783 -0.04402978 -0.08829947 0.061993927 0.060076017
-0.015879907 -0.01006882 -0.018641643 -0.07235969 -0.022975115 0.035096712 -0.058850173 -0.020068778
00000000: c15f 2d3d 3115 553c 83e0 b33d c646 56bd
00000010: eb69 ac3b 5e10 733d f593 24bd fe7d 823c
00000020: 417e 3c3d a310 0cbc 5309 5a3d 4483 04bd
00000030: 56ce 15bd 44f2 8b3c d2f7 e9bc 8e76 203d
00000040: 25be 933d 38e2 2a3d 55e9 eabb b9ae e43c
00000050: 3ce8 49bd 46f1 88bb 6d1d 533d d09a 97bc
00000060: 6d1d fd3c c940 9abd 584c 7ebd 0067 b2bd
00000070: 3ac5 6f3d 9608 dd3c e84e 413d a495 b5bd
00000080: 8fb2 37bc de1b 8bbd f852 47bb b92c 593d
00000090: 9893 9dbd fcd7 b23d 1177 ad3d 9800 833d
000000a0: 5eaa 6abd 2361 663c b8ff b53d 4de6 1bbd
000000b0: 950f 88bd b5fc 89bd b817 813d f682 16bc
000000c0: 38ef 9c3d e251 893c 795c a13d f311 f0bc
000000d0: 4714 fabc 5ac1 16bc 9c62 65bd 4515 4b3b
000000e0: daf4 85bd 36c3 823d 75fe 66bd 5b9c 39bc
000000f0: d9c7 c8bc d354 95bd 7615 c13b 8b80 21bd
00000100: 2261 cdbb 476d 25bd 8ae8 fc3c 00a3 2cbc
00000110: 9740 6c3d 8809 6cbd cdc5 433d 9fe1 7c3d
00000120: cec0 0e3c 470b 5fbc b8e7 c9bc 3a30 f2bc
00000130: 95aa cc3c b82c ad3d 70d8 073d f665 a43d
00000140: e545 65bc 8a33 31bd 76f9 9a3d 394d 29bd
00000150: 5fc3 33bc 7c9e 043d c1ee 193d cecf a33d
00000160: 9720 923d 0cba 85bd ff74 6bbd f55e 5b3d
00000170: b2ab 07bc 1863 85bd 727a 993c b2ef 8c3c
00000180: c4aa 303d 5865 9f3d 9f48 173d a78c 2dbc
00000190: 9ee3 8ebd 8db9 873c 1328 86bd 2e97 a3bd
000001a0: cb8f 2e3d 4685 3dbd 0637 073d a731 36bd
000001b0: 3092 913d b54e 51bd bb5b 153d fa64 603c
000001c0: 45cb 533d b82e 023c 64ff cb3c 12ff 913c
000001d0: ee10 a3bd 0f6f ce3b 6660 36bd defd 93bd
000001e0: 4dc8 343c 4ca3 803d e7a1 81bd 11f7 733d
000001f0: ec30 72bd 4eb5 cd3c 300e 91bd 13b1 a13b
00000200: 9b8c 0f3d babf 8ebc f558 a83d 4460 0fbd
00000210: 279e 7bbd f580 f839 47a3 363d 37e6 7abd
00000220: b239 413d af70 99bd f452 a03d cfae f0bc
00000230: c06c 84bd bb5f 0fbd cd07 4cbd 769d 8b3d
00000240: 6e53 913d 0374 493b 08bc f6bb e9b5 b7bd
00000250: 0b6e a5bd d20d 42bc 4c3c d2bc 1826 5a3c
00000260: 59a5 213d 3fda ac3d 0f7c 89bd 0ff3 90bb
00000270: 9173 81bd dffd 3c3c 25f5 0dbb 2c8d b9bd
00000280: 1924 913d 7c95 e63a 9939 cebc 3003 393d
00000290: d3f6 9cbc 0a71 97bc 863d e5bb 97fb a7bc
000002a0: cc79 123d c260 a1bd df5d a3bd 921b a53d
000002b0: 1f49 b4bd 2ffb 613d 8759 973d 4d8f 7cbd
000002c0: d929 d1bc 274b 843d c151 85bd f188 a0bd
000002d0: 42be 83bd e16d 7e3d 4237 2c3c d3e4 84bc
000002e0: 8f20 edbc 70a7 e7bb f743 5e3d 52cc 60bd
000002f0: 96fa 65bd 4f01 863b 3931 6f3d 0ae5 5fbd
00000300: ac18 8a3d 9a69 3dbd 113b f63c c456 83bc
00000310: 2770 e73b d747 a93c dfc5 013d 4840 983d
00000320: 379f 84bd 62fb 2a3d c6a8 c0bc 30d4 a9bd
00000330: e59a 59bd bee6 a4bc 18ea bb3d ac94 a0bd
00000340: c443 8f3d 65c5 02bd 544d 9e3d a1c5 8cbd
00000350: 03d5 29bd aa65 a03d ef47 763d 8349 74bc
00000360: af51 11bd 6cca 4a3b 4c16 a2bd ee29 a7bd
00000370: 9a55 9c3d 0bbf f7bb 21d4 bbbd e1f5 cebc
00000380: 7b00 003d cb3e 823d a53b 9d3d 870f 793d
00000390: e579 23bd 8d7b 3abb 40c1 0c3d ce94 793b
000003a0: bfc9 84bd 8e1b 87bd 3c48 973d 68de 953d
000003b0: 81f9 563c feb7 0dbd be01 d1bc c95b 123c
000003c0: 66c9 793c c39a d5bc 0b71 8ebd 4dcd 883d
000003d0: 9258 34bd 5ad6 b4bd 58ed 7d3d 4512 763d
000003e0: 9416 82bc b1f7 24bc 5cb6 98bc 5131 94bd
000003f0: 4f36 bcbc 92c1 0f3d e10c 71bd 4767 a4bc

rnn.weight_hh_l2 f4 [128, 128]
0.034368083 -0.038879737 0.06145247 0.04810921 -0.07500671 0.08772027 -0.04431926 -0.015798574
0.037084572 0.017826978 0.01973477 0.05238242 -0.0037221154 -0.039512463 -0.012966375 -0.041059118
-0.07714563 -0.02887044 -0.01730059 0.04894824 -0.077018544 -0.019788533 0.0513547 0.08861498
0.06732498 0.0659914 0.07734616 0.065378204 -0.08388754 -0.086516805 0.022799242 -0.05265209
0.08642139 0.030975197 -0.03555097 0.00091002724 -0.08813992 -0.054821506 0.016095746 0.058958933
-0.088280305 0.06450392 -0.014019917 0.044792134 0.04770326 0.07050708 -0.008026141 0.015224366
0.01942741 0.016007202 0.013007685 -0.07003941 0.047441714 -0.061756894 0.042197227 -0.025996221
-0.034894068 0.03340431 0.06741854 0.073999375 -0.06920472 -0.06597664 -0.0010199101 0.04409953
-0.09073663 0.07070109 -0.00011418128 -0.023389129 -0.033321988 0.089351974 -0.069586426 0.059977625
-0.0070017264 -0.081989445 0.025305923 0.032528806 0.028693695 -0.0817461 -0.037802026 0.06937467
-0.07182688 -0.06308214 0.0595565 0.048441764 -0.03771878 -0.05533036 -0.07508056 0.026665045
-0.086138204 0.08729799 0.08016772 -0.042111285 -0.019026874 0.02955602 -0.018077787 -0.03960167
0.04984844 0.05365883 0.014526991 -0.08291593 0.08604168 0.07543023 -0.07344591 0.020911327
-0.069752455 -0.043625005 -0.0302845 -0.01779439 0.032678023 -0.07809132 -0.062196027 -0.009743357
0.0315741 0.022007475 -0.057435423 0.012606077 -0.023193033 0.0027546287 -0.062985145 0.014507496
-0.0078301905 0.038930863 -0.07739476 -0.055235695 -0.049507283 -0.04864307 -0.078332365 -0.07598658
-0.012193816 0.020490969 -0.08231865 -0.046473682 0.078392014 -0.01538458 0.019481333 -0.08460124
-0.06689344 -0.0048598466 0.08972149 -0.07266005 -0.018948855 -0.060291674 -0.063117884 0.04243665
0.078341804 -0.025289927 0.011738571 0.05893282 -0.0682528 -0.06690976 -0.030974593 -0.06455208
-0.01001757 -0.058586925 0.013540591 -0.05891263 0.055260424 0.0106631415 -0.031922583 0.074976094
0.057237737 -0.023252016 -0.03801315 0.041847363 -0.041082922 -0.0024995208 -0.055055965 0.065916866
0.06700669 0.079597816 0.023647245 -0.033651967 0.051756516 -0.059710775 -0.077330746 0.03810157
-0.084988214 0.08966023 -0.02518375 0.076163486 -0.021883225 -0.028385404 0.03512179 0.057158206
-0.057401985 -0.03694846 0.004182839 0.013248548 0.07855036 0.026714677 0.02318604 -0.0046463204
-0.03096059 0.049809944 -0.012723318 0.028692883 0.024536544 -0.07779405 -0.035136625 -0.060490835
-0.028478755 0.024889193 0.07119534 0.012563288 -0.07206565 0.014287353 -0.085896425 -0.02687939
-0.05354092 -0.039174635 0.025609927 -0.05603134 -0.017591635 -0.042272907 0.049363256 -0.016564747
0.03605137 0.04391325 0.018977426 -0.057955965 -0.08973636 0.0856019 -0.075645715 -0.046582736
-0.00546303 0.07651551 -0.0034083826 0.029915838 -0.08979344 0.06504231 0.023912437 -0.039575156
-0.07197907 -0.030719299 -0.02923457 2.1354284e-05 -0.00823508 0.027428031 0.0808235 -0.0511222
-0.08992831 -0.020211412 -0.047691263 -0.0734477 -0.08819615 -0.07248503 0.074897885 -0.019806698
0.06410021 0.03946105 0.074038155 -0.05163995 -0.08069 0.050893232 0.04662185 -0.03330336
00000000: 8cc5 0c3d 5c40 1fbd 96b5 7b3d 2a0e 453d
00000010: 1e9d 99bd afa6 b33d 1d88 35bd 036c 81bc
00000020: fee5 173d e209 923c d0aa a13c f38e 563d
00000030: bcee 73bb d2d7 21bd eb70 54bc 9b2d 28bd
00000040: 87fe 9dbd b381 ecbc f8b9 8dbc f37d 483d
00000050: e6bb 9dbd 901b a2bc 4e59 523d c57b b53d
00000060: aee1 893d 8026 873d aa67 9e3d 02e5 853d
00000070: 3bcd abbd b92f b1bd 7ac5 ba3c b8a9 57bd
00000080: b3fd b03d b2bf fd3c e59d 11bd e58e 6e3a
00000090: b482 b4bd 848c 60bd 3adb 833c ec7e 713d
000000a0: 4ecc b4bd a21a 843d cbb3 65bc f577 373d
000000b0: 7e64 433d 0466 903d 1380 03bc 9f6f 793c
000000c0: 3b26 9f3c 8921 833c 2f1e 553c d270 8fbd
000000d0: 3e52 423d ccf4 7cbd 00d7 2c3d 07f6 d4bc
000000e0: 15ed 0ebd f5d2 083d bb12 8a3d fc8c 973d
000000f0: 34bb 8dbd c31e 87bd 81ae 85ba b5a1 343d
00000100: 20d4 b9bd bccb 903d 9c74 efb8 8f9a bfbc
00000110: a37c 08bd 2bfe b63d 5483 8ebd 19ab 753d
00000120: bd6e e5bb 15ea a7bd 5e4e cf3c ed3c 053d
00000130: 0a0f eb3c 806a a7bd 4cd6 1abd 4f14 8e3d
00000140: f919 93bd 3631 81bd 84f1 733d df6a 463d
00000150: 027f 1abd 16a2 62bd d6c3 99bd a770 da3c
00000160: 3a69 b0bd 4ac9 b23d f92e a43d e27c 2cbd
00000170: 3fde 9bbc 771f f23c de17 94bc 5c35 22bd
00000180: e12d 4c3d 5cc9 5b3d 9e02 6e3c d4cf a9bd
00000190: 9f36 b03d 2a7b 9a3d cf6a 96bd 3b4e ab3c
000001a0: 60da 8ebd 22b0 32bd 3317 f8bc 8ac5 91bc
000001b0: 64d9 053d 58ee 9fbd 43c1 7ebd 9aa2 1fbc
000001c0: d853 013d 0549 b43c 6841 6bbd b889 4e3c
000001d0: 51ff bdbc 0087 343b 5bfe 80bd d9b0 6d3c
000001e0: 334a 00bc f875 1f3d 2581 9ebd d33e 62bd
000001f0: 26c8 4abd f53d 47bd b86c a0bd da9e 9bbd
00000200: 92c8 47bc addc a73c ae96 a8bd 305b 3ebd
00000210: fe8b a03d 9b0f 7cbc 5197 9f3c 6a43 adbd
00000220: 6eff 88bd 593f 9fbb e7bf b73d cbce 94bd
00000230: a13a 9bbc 67f4 76bd f343 81bd 0dd2 2d3d
00000240: ab71 a03d d22c cfbc 2353 403c 8a63 713d
00000250: 20c8 8bbd fc07 89bd 6ebe fdbc e233 84bd
00000260: bc20 24bc d8f8 6fbd 5bd9 5d3c 5f4e 71bd
00000270: c158 623d 75b4 2e3c 41c1 02bd 118d 993d
00000280: 1e72 6a3d 037b bebc adb3 1bbd 2468 2b3d
00000290: 9146 28bd 00cf 23bb 5d82 61bd 6cff 863d
000002a0: ce3a 893d 2e04 a33d deb7 c13c a5d6 09bd
000002b0: a4fe 533d 4993 74bd 955f 9ebd 6410 1c3d
000002c0: 4d0e aebd c89f b73d 274e cebc 9afb 9b3d
000002d0: 7344 b3bc 8288 e8bc dedb 0f3d b91e 6a3d
000002e0: 581e 6bbd 4557 17bd 3210 893b 7010 593c
000002f0: 03df a03d bdd8 da3c a6f0 bd3c 2940 98bb
00000300: 10a1 fdbc 8305 4c3d 7775 50bc 560d eb3c
00000310: dd00 c93c 7d52 9fbd 6ceb 0fbd 3dc5 77bd
00000320: 474c e9bc 6ce4 cb3c ddce 913d 40d6 4d3c
00000330: 2897 93bd 8015 6a3c 77ea afbd 2b32 dcbc
00000340: b94d 5bbd 9575 20bd e9cb d13c 1e81 65bd
00000350: 551c 90bc 5b26 2dbd 2031 4a3d cbb2 87bc
00000360: 9aaa 133d 61de 333d 8c76 9b3c 3c63 6dbd
00000370: b2c7 b7bd 0d50 af3d 24ec 9abd 8acd 3ebd
00000380: 3803 b3bb 2ab4 9c3d 2c5f 5fbb 0f12 f53c
00000390: a0e5 b7bd e734 853d 04e4 c33c 8f19 22bd
000003a0: c369 93bd 0aa7 fbbc 567d efbc fa21 b337
000003b0: 6eec 06bc c0b0 e03c cb86 a53d 8365 51bd
000003c0: 552c b8bd 6792 a5bc ea57 43bd bf6b 96bd
000003d0: 2fa0 b4bd 0873 94bd 1064 993d a841 a2bc
000003e0: f946 833d e9a1 213d 51a1 973d 6a84 53bd
000003f0: cc40 a5bd 6c75 503d 8ef6 3e3d 1b69 08bd
